saved_models/beans_model.pt (torch, 85360 bytes, 7 tensors)

soil_net.0.weight f4 [64, 14]
0	0xbe2a60c9	-0.16638483
1	0xbe2cffc8	-0.16894448
2	0xbe7f156f	-0.2491052
3	0xbe06235d	-0.13099428
4	0x3d0fc8a5	0.03510346
5	0xbdaaab9f	-0.083335154
6	0x3e48cc10	0.19609094
7	0x3e8e97c5	0.27850166
8	0xbc29c843	-0.0103626875
9	0xbe41eb5a	-0.18937436
10	0xbda1a7fa	-0.07893367
11	0xbe7e46d1	-0.24831702
12	0x3d6d42b5	0.057924945
13	0x3e55b625	0.20870264
14	0xbe13a21e	-0.14417312
15	0x3dbb5840	0.09147692
16	0xbe5fe7d4	-0.21865779
17	0x3e270ca6	0.16313419
18	0x3dce8518	0.10083979
19	0x3e80472e	0.25054306
20	0xbe8bc784	-0.27300656
21	0x3c92f144	0.01793731
22	0x3dd51075	0.104035296
23	0xbe5a9e9b	-0.21349566
24	0xbd375c36	-0.044765674
25	0x3e79f0a7	0.24408208
26	0xbe2b6524	-0.16737801
27	0xbd589be9	-0.052883063
28	0xbe20f6ff	-0.15719222
29	0xbe4ddbcc	-0.20103377
30	0xbd17465a	-0.036932327
31	0xbe03f0e2	-0.12884858
32	0xbd99c1c1	-0.07507659
33	0xbd9c2051	-0.07623351
34	0x3e681413	0.22663908
35	0xbe175233	-0.1477745
36	0x3e8d345d	0.27579013
37	0xbe5bc469	-0.21461643
38	0x3e96904a	0.2940696
39	0x3e290f35	0.16509707
40	0x3b94038b	0.004517024
41	0x3e24d1df	0.16095684
42	0xbe0ea8a5	-0.1393152
43	0x3d66af2d	0.056319404
44	0x3e4ed7f3	0.20199566
45	0x3e287384	0.16450316
46	0x3e75623f	0.23963259
47	0xbc8b2faa	-0.016990501
48	0x3e04f13d	0.1298265
49	0x3c635581	0.013875366
50	0xbe365a22	-0.1780782
51	0x3ca3f204	0.020012863
52	0x3e5679d5	0.20944913
53	0xbcd0ec06	-0.02550317
54	0xbe81daaa	-0.2536214
55	0x3d99cd6d	0.07509885
56	0xbe586772	-0.21133211
57	0xbe1f3e7f	-0.15551184
58	0x3d8ac364	0.06775549
59	0xbd64391d	-0.05571853
60	0x3d2eac91	0.04264504
61	0xbe5d74e8	-0.21626627
62	0x3e0d3006	0.1378785
63	0xbdc6ba49	-0.097035
64	0x3e6e226d	0.2325532
65	0x3d4f25a5	0.05057301
66	0x3df367e5	0.11885051
67	0x3e6e1068	0.23248446
68	0x37f1b7c0	2.8815004e-05
69	0x3dbd4543	0.09241726
70	0x3dfa6e54	0.12228075
71	0xbe10a42b	-0.14125125
72	0x3e7153a4	0.23567063
73	0xbe386fc8	-0.18011391
74	0xbdce2b84	-0.10066894
75	0xbd55f520	-0.052235723
76	0xbdc19514	-0.094522625
77	0xbe535a52	-0.20639923
78	0x3dd5461a	0.104137614
79	0x3df1c4c1	0.11805106
80	0xbcf3fdc7	-0.029784096
81	0x3c2ff575	0.010739674
82	0xbe4cf05c	-0.20013565
83	0x3e0bdb5c	0.13657898
84	0xbe3d17dd	-0.18466134
85	0xbe3d4d23	-0.18486457
86	0xbca8d89d	-0.020611102
87	0xbc08d102	-0.008350613
88	0x3de7553e	0.112955555
89	0x3d9e3e52	0.077267304
90	0xbe13b751	-0.14425398
91	0x3c971e3d	0.018447036
92	0xbe89de8c	-0.26927602
93	0xbe7b410c	-0.24536532
94	0x3e4019be	0.1875982
95	0x3e6057c3	0.21908478
96	0x3e119c2e	0.14219734
97	0x3e0def5e	0.13860843
98	0xbdee2ee2	-0.11630036
99	0x3e96f0a1	0.2948046
100	0xbe5a5389	-0.21320929
101	0x3de474c6	0.11155085
102	0x3d3fbe60	0.046812415
103	0x3e43e89a	0.19131699
104	0x3e46d3d0	0.19416738
105	0xbd019cdc	-0.031643733
106	0xbe8d89ab	-0.27644095
107	0x3d53abff	0.0516777
108	0xbe44f585	-0.19234283
109	0x3d0991e5	0.0335864
110	0x3e4704e8	0.19435465
111	0x3df7be5c	0.12096855
112	0x3d80b1ce	0.062839136
113	0x3e0467e8	0.12930262
114	0x3dd96b72	0.10616197
115	0xbd0fbd15	-0.035092432
116	0x3d8a977a	0.06767173
117	0xbdfabec2	-0.122434154
118	0x3e47826a	0.19483343
119	0xbe2ae24c	-0.16687888
120	0x3d3ff15d	0.04686104
121	0x3dfc6462	0.12323834
122	0x3e121179	0.14264478
123	0x3e2cae03	0.16863255
124	0xbdd01c81	-0.10161687
125	0xbe287342	-0.16450217
126	0xbe8092fc	-0.2511214
127	0xbd497258	-0.049181312
128	0xbe76c0ae	-0.24096939
129	0x3d63ab93	0.055583548
130	0x3e246548	0.1605426
131	0x3e575fa7	0.21032582
132	0x3e064582	0.13112453
133	0x3c69c6a7	0.014268554
134	0xbe24ec4e	-0.16105768
135	0xbd41d141	-0.0473187
136	0xbd807394	-0.06272045
137	0xbdcdfe0e	-0.10058223
138	0xbe72ed12	-0.23723248
139	0x3dd72344	0.10504773
140	0xbcb36013	-0.021896398
141	0x3df106e4	0.117688924
142	0xbda7bca3	-0.081902765
143	0x3e280bce	0.16410753
144	0x393e5ee0	0.00018155156
145	0x3e06449f	0.13112114
146	0xbd48a1d7	-0.048982468
147	0x3e544a08	0.20731366
148	0xbe0ea1bc	-0.13928884
149	0xbbe00f1e	-0.0068377396
150	0xbdb6f426	-0.08933286
151	0xbd7d339e	-0.061816804
152	0x3e5cc1ae	0.21558258
153	0x3e76b93c	0.24094099
154	0x3e2d90d9	0.16949786
155	0xbe620258	-0.22071207
156	0x3e5947fd	0.21218868
157	0x3e1f7e63	0.15575556
158	0x3e2f9bb2	0.17149237
159	0x3e2f30a4	0.17108399
160	0xbdf3e80a	-0.11909492
161	0xbd4c7b3f	-0.049922224
162	0x3e812651	0.25224546
163	0x3e8686f4	0.26274836
164	0xbdea9ab3	-0.11455288
165	0x3d087ba7	0.03332105
166	0xbdee5021	-0.11636377
167	0xbe5f6ddb	-0.2181925
168	0xbe517d83	-0.20458035
169	0x3e8168d4	0.2527529
170	0xbe1e9ce5	-0.15489538
171	0xbced5054	-0.028968967
172	0xbbce08b1	-0.006287657
173	0xbcd7e2e3	-0.026353305
174	0x3b73e2d4	0.0037214058
175	0xbe6294aa	-0.22127023
176	0x3e8a73b6	0.27041405
177	0xbde46a04	-0.111530334
178	0x3dcfc8dd	0.101457335
179	0x3e1fcf63	0.15606456
180	0x3ddff04f	0.10934507
181	0x3d41f722	0.047354825
182	0x3e217254	0.15766269
183	0x3d83f50a	0.06443222
184	0xbe3f2050	-0.1866467
185	0x3db05a38	0.08610958
186	0xbe66c8dc	-0.2253756
187	0x3db6dfb4	0.08929387
188	0x3d28612a	0.041108288
189	0xbdf517b4	-0.11967412
190	0x3d4382af	0.04773205
191	0xbbbca53d	-0.0057570026
192	0x3e64b78f	0.22335647
193	0xbd57474a	-0.05255822
194	0xbe7e30bb	-0.24823277
195	0xbdb679bd	-0.089099385
196	0xbd89562b	-0.06705888
197	0xbd357a58	-0.04430613
198	0xbe24d787	-0.16097842
199	0x3e19491a	0.14969292
200	0xbd992954	-0.07478586
201	0x3d899b80	0.067191124
202	0x3dd01a95	0.1016132
203	0xbe474272	-0.1945894
204	0xbe6872b2	-0.22700003
205	0xbe40cfa1	-0.18829204
206	0x3d8f33ed	0.06992326
207	0xbe0310eb	-0.12799422
208	0x3e2dffa8	0.16992056
209	0x3c0b045a	0.008484924
210	0x3e097aab	0.134257
211	0x3dbb3ad6	0.091420814
212	0xbdbfcefb	-0.0936565
213	0x3d49db34	0.049281314
214	0x3e282052	0.16418579
215	0xbe084adf	-0.13309811
216	0xbdcd467f	-0.10023212
217	0x3dc120f4	0.094301134
218	0x3e699fef	0.22814916
219	0x3e5c2770	0.21499419
220	0xbe185da1	-0.14879467
221	0x3e9472a6	0.2899372
222	0xbdaebdcc	-0.08532295
223	0x3e2bb246	0.16767225
224	0x3d90e3c4	0.07074693
225	0xbd9470e2	-0.07248093
226	0xbc89e556	-0.016832989
227	0xbe6d644c	-0.23182791
228	0x3e4343e4	0.19068867
229	0x3db24a33	0.08705559
230	0xbe78713c	-0.24261945
231	0xbd8fe0eb	-0.070253216
232	0xbe569a88	-0.20957386
233	0xbe2033f6	-0.15644822
234	0x3e6c7205	0.2309037
235	0xbe15f552	-0.14644364
236	0x3e317174	0.17328435
237	0xbe2dbfa4	-0.16967636
238	0xbcc52c14	-0.02406887
239	0xbe331d5a	-0.17491665
240	0xbe899a60	-0.2687559
241	0x3e1a9877	0.15097223
242	0xbd0372fe	-0.032092087
243	0x3e4474b0	0.19185138
244	0xbe6ce66a	-0.23134771
245	0x3e18eeef	0.14934896
246	0x3e49a48b	0.19691674
247	0xbe55927e	-0.20856664
248	0x3e63a3a3	0.22230391
249	0x3e032f0a	0.12810913
250	0xbde937a0	-0.11387563
251	0x3db7e032	0.08978309
252	0xbe546af1	-0.2074392
253	0xbe23e369	-0.16004719
254	0x3cba5386	0.022744905
255	0xbc396e47	-0.011317796

soil_net.0.bias f4 [64]
0	0xbe446b8c	-0.19181651
1	0x3e4e1b9c	0.2012772
2	0x3df00d15	0.11721245
3	0x3c406b96	0.0117444005
4	0xbe3c18aa	-0.18368784
5	0x3cffee34	0.031241514
6	0x3e331216	0.17487368
7	0x3d9407d8	0.072280586
8	0xbd320d16	-0.04346951
9	0xbe7062d2	-0.23475197
10	0xbc8103ba	-0.015748847
11	0xbe69a059	-0.22815074
12	0x3dce5ef4	0.100767046
13	0x3e2a7ddc	0.16649574
14	0x3e0802d8	0.13282335
15	0x3e3a2f73	0.18182163
16	0x3e0a592e	0.13510582
17	0xbe65bf14	-0.22436172
18	0xbe788c6b	-0.24272315
19	0xbe0c469d	-0.13698812
20	0x3e652533	0.22377472
21	0xbdcce96e	-0.10005461
22	0x3e49c1ad	0.19702788
23	0xbe765152	-0.24054459
24	0xbdb0aa61	-0.08626247
25	0xbdfacbac	-0.122458786
26	0x3e21f58c	0.15816325
27	0xbe339fc3	-0.17541413
28	0x3e2f8600	0.1714096
29	0x3e6bfece	0.23046419
30	0x3d36c928	0.04462543
31	0x3e229a75	0.15879233
32	0x3e1a1949	0.15048708
33	0xbdb5ff17	-0.08886545
34	0x3e03b861	0.12863304
35	0x3c3774d8	0.011197291
36	0x3d1e115f	0.038590785
37	0xbdc958ab	-0.09831365
38	0xbe3393ac	-0.17536801
39	0x3e59a0cc	0.21252745
40	0xbdeca3de	-0.11554693
41	0xbddfdd61	-0.109308966
42	0xbdc9e774	-0.09858599
43	0xbe3bf014	-0.18353301
44	0xbe0d5c85	-0.13804825
45	0xbdc7829e	-0.0974171
46	0x3d3bc131	0.04583854
47	0x3d9441e1	0.07239128
48	0xbdf34442	-0.118782535
49	0x3ce91d86	0.02845646
50	0xbe2f79fc	-0.17136377
51	0x3c296220	0.010338336
52	0x3cf93b19	0.030423688
53	0x3dc1fb21	0.09471727
54	0xbe80e835	-0.2517716
55	0x3e2f55fa	0.17122641
56	0xbde9b5aa	-0.11411603
57	0x3e55bb0f	0.20872138
58	0x3d0c0877	0.03418776
59	0xbe135491	-0.14387728
60	0x3d446b59	0.047953937
61	0xbd8179a9	-0.06322033
62	0xbdf950d1	-0.12173618
63	0xbddeb925	-0.10875157

soil_net.2.weight f4 [32, 64]
0	0x3cd025d3	0.025408661
1	0xbcc910e5	-0.024544189
2	0xbd9b26dc	-0.07575771
3	0xbe025cbf	-0.12730692
4	0xbd67daa6	-0.056605004
5	0x3dd46957	0.103716545
6	0x3bc62232	0.006046557
7	0x3e0650aa	0.13116708
8	0x3da527d2	0.08064236
9	0x3d2e17a1	0.042503003
10	0x3d9b7948	0.07591492
11	0xbd46622c	-0.048433468
12	0x3d84bc2c	0.064812034
13	0x3df5d0a2	0.12002684
14	0xbdf1d990	-0.11809075
15	0x3d35f1c8	0.044420034
16	0xbd757c13	-0.05993278
17	0xbc69eeb4	-0.014278103
18	0x3d782e76	0.060591184
19	0xbc676ca4	-0.014125023
20	0xbe07f72b	-0.13277881
21	0x3d12d69c	0.0358492
22	0xbda1572e	-0.07877956
23	0xbd36e628	-0.044653088
24	0xbbf6a464	-0.007526921
25	0x3dd5b55c	0.10434982
26	0x3d5deba0	0.054179788
27	0x3c25021a	0.010071302
28	0xbdf6aff1	-0.12045277
29	0xbdb2963e	-0.08720063
30	0x3cacd38e	0.02109697
31	0x3d3e6556	0.04648336
32	0x3d5dbd96	0.05413588
33	0xbd8e7a16	-0.0695688
34	0xbcb39b4b	-0.021924635
35	0xbe02a4aa	-0.12758127
36	0x3c941e94	0.018080987
37	0x3c43da65	0.011953925
38	0xba6612fa	-0.00087766314
39	0xbce8f426	-0.028436732
40	0x3d19f0ad	0.037583042
41	0xbddbcb76	-0.107321665
42	0x3dbc04cc	0.091806024
43	0xbdb5ea16	-0.08882539
44	0x39f54046	0.0004677793
45	0xbdbd6aec	-0.09248909
46	0xbe0edeed	-0.13952227
47	0xbd89269d	-0.06696818
48	0x3c9b983e	0.018993493
49	0xbd93e4b9	-0.0722136
50	0x3dc84d07	0.09780317
51	0x3ce31469	0.027719693
52	0x3d414b05	0.047190685
53	0xbd0b0086	-0.033936046
54	0x3c5a9f63	0.013343665
55	0x3dcc919f	0.099887125
56	0x3c92be4d	0.017913008
57	0xbd5a2808	-0.053260833
58	0xbdd1b717	-0.1024
59	0x3d614993	0.055001806
60	0x3ce275d2	0.027644072
61	0x3dd4c853	0.10389771
62	0x3dbf9beb	0.09355911
63	0xbd253b63	-0.04033984
64	0xbd9f4504	-0.077768356
65	0xbd133d5b	-0.035947185
66	0x3dc6595d	0.096850134
67	0x3d7b1add	0.061304916
68	0xbc254f73	-0.010089743
69	0x3dc21997	0.09477537
70	0xbd074331	-0.033023063
71	0x3caa8692	0.020816121
72	0xbe08bbd8	-0.13352907
73	0x3da4c126	0.08044653
74	0xbb203a56	-0.0024448833
75	0x3d9acff2	0.07559194
76	0x3d57716a	0.052598394
77	0x3de17bdf	0.11009955
78	0xbd8dcee1	-0.06924225
79	0xbe01562c	-0.12630528
80	0x3b70f28c	0.0036765663
81	0xbe02f074	-0.12787038
82	0xbdc0f815	-0.09422318
83	0x3d830319	0.06397075
84	0xbd18a477	-0.03726622
85	0xbcd23a8d	-0.025662685
86	0x3db0a17b	0.0862455
87	0xbdf0c9ef	-0.11757266
88	0xbbbc749d	-0.005751206
89	0x3d13433b	0.035952788
90	0x3d0f5dac	0.03500144
91	0xbd9ac003	-0.075561546
92	0xbca4d73c	-0.020122163
93	0x3d2491d0	0.04017812
94	0xbd21d5c4	-0.039510503
95	0xbd931642	-0.0718198
96	0xbdc226d1	-0.0948006
97	0x3c8fbf48	0.017547265
98	0xbe101695	-0.14071114
99	0xbc6b9310	-0.014378324
100	0xbddcc338	-0.107794225
101	0x3ba0e7a1	0.004910425
102	0xb932c5c0	-0.0001704907
103	0x3c093965	0.0083755
104	0x3db5afab	0.08871397
105	0xbdafec56	-0.085899994
106	0xbcb67c07	-0.022275938
107	0x3dd31c38	0.10308117
108	0xbd509226	-0.050920628
109	0xbc6e7740	-0.014554799
110	0xbd317fb7	-0.04333469
111	0xbe01f24c	-0.12690085
112	0x3dcc0e31	0.09963644
113	0x3de75f11	0.11297429
114	0x3dae5553	0.08512368
115	0xbd66bbd3	-0.056331467
116	0x3da2807c	0.07934663
117	0xbd0ba2a3	-0.03409065
118	0xbddcfd66	-0.107905194
119	0xbc9f7bf1	-0.01946828
120	0x3d26eae4	0.040751353
121	0xbd74e2c5	-0.059786577
122	0x3daa44f3	0.08313932
123	0x3b824d8a	0.0039765285
124	0xbd4a5e59	-0.049406383
125	0xbc54bd83	-0.012984636
126	0xbdd77af6	-0.105215
127	0x3c0c33ea	0.008557299
128	0x3e0b419c	0.13599247
129	0x3d315d02	0.04330159
130	0xbd1efcd8	-0.03881535
131	0x3db5df12	0.08880438
132	0x3ca20f3d	0.019782657
133	0xbd861fd8	-0.065490425
134	0x3c9338a6	0.017971348
135	0x3c96827e	0.01837277
136	0xbdb75591	-0.08951867
137	0x3e0c1d62	0.13683084
138	0x3e17aa51	0.14811064
139	0xbde0d828	-0.109787285
140	0x3df69b06	0.12041287
141	0x3e028a72	0.12748125
142	0x3da91546	0.08256011
143	0x3d0c40c6	0.03424146
144	0xbe013614	-0.12618285
145	0x3d87cc5b	0.066307746
146	0x3d4cfe20	0.05004704
147	0x3d6f085e	0.05835759
148	0xbd9af88b	-0.07566937
149	0xbd45a101	-0.04824925
150	0x3d8e5cfd	0.0695133
151	0x3d20019a	0.039064027
152	0x3d78dffe	0.06076049
153	0x3d49adf1	0.04923815
154	0xbdbe9956	-0.0930659
155	0xbb6dc25d	-0.003627918
156	0xbe0a0f81	-0.13482477
157	0xbcda2c00	-0.026632309
158	0xbe1cf3d2	-0.15327385
159	0x3d06d09a	0.03291378
160	0x3d04283c	0.032264933
161	0x3d8bd4b8	0.06827682
162	0xbdab3a46	-0.08360724
163	0x3cad8230	0.021180242
164	0xbdeec3f6	-0.1165847
165	0xbd73afce	-0.059493832
166	0xbde07ea0	-0.10961652
167	0x3d8693a7	0.06571131
168	0xbdf213b7	-0.118201666
169	0x3ce5a7c1	0.028034093
170	0xbe1b00be	-0.15137002
171	0x3e09835b	0.13429014
172	0xbd94b4b9	-0.072610326
173	0xbdea8604	-0.11451343
174	0xbcecaa41	-0.028889777
175	0x3c33b543	0.010968509
176	0x3e1e9123	0.15485053
177	0x3ceab387	0.028650058
178	0xbd97325d	-0.07382653
179	0xbe1bc2c7	-0.1521102
180	0xbd7aa216	-0.061189733
181	0xbd666425	-0.05624785
182	0xbe064d1d	-0.13115354
183	0x3dcecd84	0.10097793
184	0x3cee79db	0.02911084
185	0x3d36b66d	0.04460757
186	0xbdf391ac	-0.11893019
187	0xbdd170fe	-0.1022663
188	0x3d4fb746	0.050711893
189	0xbe066009	-0.13122572
190	0x3d3ff29e	0.046862237
191	0xbcf31ca2	-0.02967674
192	0xbe149ef3	-0.1451376
193	0xbdce3dbe	-0.1007037
194	0x3de32fbd	0.1109309
195	0x3de707bf	0.11280774
196	0xbce4dd44	-0.027937539
197	0x3d7f9355	0.062396366
198	0x3ca9cfe4	0.020729013
199	0x3dac6fdb	0.08419772
200	0x3cf02908	0.02931644
201	0xbd485261	-0.048906688
202	0x3d586029	0.05282608
203	0xbc6086ef	-0.013704046
204	0x3d5cd35a	0.053912498
205	0xbdd9dd35	-0.10637895
206	0x3cc91239	0.024544822
207	0x3e09dcdd	0.13463159
208	0xbd438a8d	-0.047739554
209	0xbdcb612c	-0.099306434
210	0xbc9428a4	-0.018085785
211	0x3e16d8f9	0.14731206
212	0x3cee7004	0.029106148
213	0x3de83bdf	0.113395445
214	0x3dc48577	0.09595769
215	0x3de9a030	0.114075065
216	0x3e1ce836	0.15322956
217	0xba7cb2fc	-0.0009639708
218	0xbd55ddc5	-0.05221345
219	0xbd7e3cad	-0.062069584
220	0x3dfb03fb	0.122566186
221	0x3d1b9665	0.037985224
222	0x3e101d51	0.14073683
223	0xbc23cdb6	-0.009997776
224	0x3cc8ed23	0.024527138
225	0xbcc2ae6c	-0.023764811
226	0xbdacdafa	-0.08440204
227	0xbd325feb	-0.043548506
228	0x3dcd7b26	0.10033254
229	0xbda50a0b	-0.08058556
230	0xbbdb3885	-0.0066900873
231	0x3d8ec073	0.069703005
232	0x3e0fec17	0.14054905
233	0xbcbab77d	-0.022792572
234	0x3d6b0103	0.05737401
235	0xbe08f08d	-0.13373013
236	0x3d0de4f6	0.034642182
237	0xbdc2a5d8	-0.095042884
238	0x3d329dd5	0.04360755
239	0x3dddff0a	0.108396605
240	0x3d2a633e	0.04159855
241	0x3cfe2289	0.031022327
242	0xbcfd5a8f	-0.03092697
243	0x3dc65d62	0.0968578
244	0xbc32bd79	-0.010909432
245	0xbc4c320e	-0.012463106
246	0x3dc83294	0.09775272
247	0x3dc9457d	0.09827707
248	0xbbaa107e	-0.0051899543
249	0x3ddeb8d7	0.10875099
250	0xbd72b75d	-0.0592569
251	0x3ddd5a38	0.108082235
252	0x3d3f4907	0.046700504
253	0xbd4a0dac	-0.049329445
254	0xbdc54e75	-0.09634105
255	0xbb5eeb44	-0.003401474

soil_net.2.bias f4 [32]
0	0xbdb93412	-0.09043135
1	0xbde3c0a1	-0.111207254
2	0xbce15b38	-0.027509317
3	0x3bb4b554	0.00551478
4	0x3cd1535c	0.025552444
5	0xbdbd50b7	-0.09243911
6	0xbd563d01	-0.05230427
7	0x3dbf2de8	0.09334928
8	0x3dc08266	0.093998715
9	0x3dd5ba4e	0.104359254
10	0xbdd5c478	-0.10437864
11	0xbdb9af7f	-0.09066676
12	0xbdd59a5f	-0.104298346
13	0xbde28f7e	-0.11062525
14	0x3df60635	0.12012903
15	0xbd9b0614	-0.07569519
16	0xbd88fbe7	-0.066886716
17	0xbdc44a94	-0.09584537
18	0x3daa9260	0.083287
19	0x3d3e54b4	0.046467498
20	0xbbefd71b	-0.0073193437
21	0xbdeb5c83	-0.114922546
22	0xbdc042d3	-0.09387746
23	0xbd2be9c4	-0.041970983
24	0x3de9a082	0.114075676
25	0xbd8539cc	-0.065051645
26	0xbd302ece	-0.043013386
27	0x3af5a92c	0.0018742434
28	0xbd0a77d6	-0.03380569
29	0x3dbe2b70	0.09285629
30	0xbd95c24f	-0.07312452
31	0x3ce8326d	0.028344357

fusion.0.weight f4 [32, 544]
0	0x3ba4610a	0.005016451
1	0xbd15cc6a	-0.036571898
2	0x3d01b3ce	0.031665616
3	0x3d3ab7e1	0.045585517
4	0xbcf4e3a4	-0.029893704
5	0xbd0ccf75	-0.034377534
6	0x3d16acd5	0.03678592
7	0xbd24c59b	-0.040227514
8	0xbc8d183a	-0.017223466
9	0xbb3b4ca2	-0.0028579612
10	0xbc8d3584	-0.017237432
11	0xbd12648e	-0.035740428
12	0x3b5685b6	0.0032733507
13	0xbce2523c	-0.027627103
14	0xbc804a0c	-0.015660308
15	0x3a213bac	0.00061505544
16	0x3cef393f	0.029202102
17	0x3cba3fbe	0.022735473
18	0x3ce6cff0	0.028175324
19	0xbc34c077	-0.011032215
20	0x3ce10283	0.027467018
21	0x3ceef15d	0.029167825
22	0xbd08bf44	-0.03338553
23	0xbc847c5d	-0.016172582
24	0xbaf80ba8	-0.0018924372
25	0x3d3b34b7	0.04570457
26	0xbca22e55	-0.019797483
27	0xbbff4983	-0.0077907457
28	0xbcf115a2	-0.02942926
29	0x3c506a0d	0.012720597
30	0xbc348ae3	-0.011019441
31	0x3d139602	0.03603173
32	0x3c38b5d4	0.01127382
33	0xbca2072c	-0.01977881
34	0x3c54e587	0.012994177
35	0xbd2ad15c	-0.041703567
36	0xbd382c9a	-0.04496441
37	0xbc61c57d	-0.013779995
38	0x3cc2c22c	0.023774229
39	0x3cdeeaa3	0.027211493
40	0xbd132ccd	-0.035931397
41	0x3b87c777	0.004143651
42	0x3cdc508f	0.026893882
43	0xbc5ecbc9	-0.013598391
44	0x3d01ace9	0.03165904
45	0xbc0033bb	-0.0078248335
46	0xbc53ea30	-0.012934253
47	0x3b025896	0.0019889227
48	0x39bd3b4a	0.00036093063
49	0x3ceb85b5	0.02875028
50	0xbcdcb039	-0.026939498
51	0xbbdef2b2	-0.006803834
52	0xbc8f568a	-0.01749732
53	0x3c9cc638	0.019137487
54	0xbca52949	-0.020161288
55	0xbd3cff7e	-0.046142094
56	0xbd2781b5	-0.040895183
57	0xbc36ba20	-0.011152774
58	0xbceb616e	-0.028732982
59	0xbc4d5006	-0.012531286
60	0x3bf7d82d	0.007563612
61	0x3ce00465	0.027345845
62	0x3bb59a92	0.005542108
63	0xbce3bbdc	-0.02779954
64	0xbcc270de	-0.02373546
65	0xbd3ad4d3	-0.04561312
66	0xbb6bea1f	-0.0035997701
67	0xbbee8e89	-0.007280175
68	0xbaccbd4c	-0.001562038
69	0x3aef214e	0.0018244179
70	0xbcb93a53	-0.022610819
71	0x3b211100	0.0024576783
72	0x3d001cbb	0.0312774
73	0xbd1121dc	-0.03543268
74	0x3bc68d56	0.006059329
75	0x39d8d92a	0.0004136053
76	0xbc708bcc	-0.014681768
77	0xbc0152a9	-0.007893243
78	0xbce45dc5	-0.027876744
79	0x3cc69c58	0.024244472
80	0xbd2b8c1e	-0.041881673
81	0x3ce699de	0.028149541
82	0xbd2d98a9	-0.042381916
83	0xbb70b688	-0.003672989
84	0x3c527805	0.012845998
85	0xbd1a94c1	-0.03773952
86	0xbd063c69	-0.032772455
87	0x3c8a5404	0.016885765
88	0x3cf45e4a	0.029830117
89	0xbd1ac8f0	-0.037789285
90	0x3cdcacba	0.026937831
91	0xbd14464e	-0.03619986
92	0x3cdb1865	0.02674503
93	0x3cea3413	0.028589284
94	0x3d246cf1	0.040142957
95	0x3cba4c1e	0.022741374
96	0xbcf633fd	-0.030054087
97	0xbd06d316	-0.03291615
98	0x3c72e18e	0.014824284
99	0x3ca2d326	0.019876074
100	0xbd10df44	-0.035369173
101	0xbd42e58e	-0.0475822
102	0xbd27b212	-0.040941305
103	0xbcc763f0	-0.024339646
104	0x3ccad21e	0.024758395
105	0x3cc3f10e	0.023918655
106	0xbd01988b	-0.031639617
107	0x3c88a25c	0.016678981
108	0xbd251545	-0.040303487
109	0x3cabdee4	0.020980306
110	0x3cba18bb	0.02271687
111	0x3a8dd5e5	0.0010821192
112	0x3c5bd105	0.013416533
113	0xbcdbfeb3	-0.026854848
114	0xbd1d0c81	-0.038342003
115	0xbc8c5e6b	-0.017134866
116	0x3be974cf	0.0071245204
117	0xbcbd7ab2	-0.023129795
118	0xbc791c57	-0.015204511
119	0xbbfb0438	-0.007660415
120	0xbcd83c92	-0.02639607
121	0x3d10b662	0.035330184
122	0x3cbfd918	0.023418948
123	0x3bd25609	0.0064189476
124	0x3c2404fc	0.010010954
125	0xbcdf4707	-0.027255548
126	0xbcadbe25	-0.021208832
127	0x3c2eabba	0.01066106
128	0x3c2217ca	0.009893367
129	0xbce3d779	-0.027812706
130	0xbce8dddb	-0.028426101
131	0x3d00afa1	0.031417493
132	0x3cd574c8	0.026056662
133	0x3cac73d6	0.021051329
134	0xbb534b3b	-0.0032240886
135	0xbcedde3b	-0.029036632
136	0xbd3ff779	-0.046866868
137	0xbc3272fc	-0.010891672
138	0x3c42e004	0.01189423
139	0x3c87cc79	0.016576992
140	0x3b0cd8a9	0.0021491444
141	0x3d1244a1	0.03570998
142	0xbb1ad72c	-0.0023626788
143	0xbd2f0f45	-0.04273917
144	0xbcf5b10a	-0.029991645
145	0xbd043252	-0.03227455
146	0xbd18bd1d	-0.037289727
147	0x3bc05e48	0.005870614
148	0xbc83332c	-0.016015612
149	0x3cfba1a6	0.030716728
150	0x3cb99845	0.022655616
151	0xbbbca8d2	-0.0057574296
152	0x3c35f9f4	0.011106957
153	0xbd29db1d	-0.04146873
154	0xbc655378	-0.013996951
155	0x3d0b80e7	0.034058478
156	0x3c43c363	0.011948439
157	0x3d153f1d	0.036437143
158	0x3d07c83b	0.03314994
159	0xbc1e5469	-0.00966368
160	0x3b643173	0.0034819513
161	0x3b1711ad	0.0023051307
162	0x3c035e01	0.008018018
163	0xbc34b7d9	-0.011030161
164	0x3c985d7d	0.018599266
165	0x3ccd4f52	0.025062237
166	0xbc6226b0	-0.013803169
167	0xbd22ab92	-0.039714403
168	0xbc98522d	-0.018593872
169	0xbc900e4e	-0.017584946
170	0xbcd41129	-0.025887089
171	0x3bcd7a36	0.006270672
172	0x3caf51f5	0.021401385
173	0xbd01a81c	-0.031654462
174	0x3cad7d6c	0.02117797
175	0x3caf3b8c	0.021390699
176	0xbc51bfe8	-0.012802102
177	0x3d130b16	0.035899244
178	0x3c74e3b3	0.014946866
179	0xbd03dd22	-0.03219331
180	0x3cc41528	0.02393587
181	0x3cfdbf18	0.03097491
182	0xbc23ad0b	-0.009989987
183	0xbce034e8	-0.027368978
184	0x39aa31c9	0.0003246202
185	0xbac6a3ed	-0.0015155055
186	0xbd2242f9	-0.03961465
187	0x3c9523e9	0.0182056
188	0x3d0ba38d	0.03409152
189	0x3d014b8e	0.031566195
190	0x3a758bae	0.0009366822
191	0xbcc2c4ed	-0.023775542
192	0xbd04188e	-0.03224998
193	0x3c702e20	0.014659435
194	0xbce821c5	-0.028336415
195	0xbcc115f9	-0.023570048
196	0x3d04262d	0.03226297
197	0xbb770599	-0.0037692545
198	0x3d08ea30	0.033426464
199	0x3cc7aef9	0.024375426
200	0x3cdde20f	0.027085332
201	0x3c1b0555	0.0094617205
202	0xbbd6ea21	-0.006558672
203	0x3c814c3b	0.01578342
204	0xbbec4840	-0.0072107613
205	0xbc239b9b	-0.00998583
206	0x3b41c9c0	0.0029569715
207	0xbcb772bf	-0.022393582
208	0xbc4c4ee2	-0.012469979
209	0x3c0e8831	0.008699463
210	0x3cc9df9c	0.024642758
211	0xbca2d9ea	-0.0198793
212	0xbce6ed87	-0.028189434
213	0xbc7bb100	-0.015362024
214	0x3cfd45d3	0.030917084
215	0xbd1d175f	-0.038352367
216	0x3b37bb12	0.0028035087
217	0x3ce506e1	0.027957382
218	0xbca30dac	-0.01990398
219	0x3c84b998	0.01620178
220	0x3c4beb36	0.012446215
221	0x3c881e0b	0.016615888
222	0xbd42f7f3	-0.047599744
223	0x3bd02465	0.006351995
224	0xbc941223	-0.018075055
225	0xbc9429a8	-0.01808627
226	0xbd3f39e8	-0.046686083
227	0xbd10de51	-0.035368267
228	0x3c7750e9	0.015094974
229	0xbb0fba48	-0.00219311
230	0x3c484008	0.0122222975
231	0xbd014a47	-0.031564977
232	0x3b81456d	0.003945044
233	0x3cf308df	0.029667316
234	0xbbdaf24b	-0.0066817156
235	0xbd164e66	-0.03669586
236	0x3d022270	0.031771123
237	0xbd1095c1	-0.035299066
238	0x3a5159b8	0.00079860864
239	0x3c05fd5a	0.0081780795
240	0x3d0bffa5	0.03417935
241	0x3b3555ba	0.0027669505
242	0xbbfeffb1	-0.0077819456
243	0xbc8464fd	-0.016161436
244	0xbd478e11	-0.04871947
245	0xbd2738e6	-0.040825747
246	0xbd26337e	-0.04057645
247	0x3becdd92	0.0072285617
248	0xbc0adc56	-0.008475384
249	0x3ca3f732	0.020015333
250	0x3cc9057c	0.024538748
251	0xbd389a58	-0.04506907
252	0xbcb97930	-0.022640795
253	0xbd01bc66	-0.03167381
254	0x3d0dd00c	0.034622237
255	0xbd1a6430	-0.037693202

fusion.0.bias f4 [32]
0	0x3c87624e	0.016526368
1	0x3ab3f012	0.0013728163
2	0x3ba2e762	0.0049714306
3	0x3cc73ca8	0.024320915
4	0x3b5cd300	0.0033695102
5	0x3c03133c	0.008000191
6	0x3d156379	0.036471818
7	0xbca02a69	-0.019551473
8	0x3b2b97c0	0.002618298
9	0xbd016562	-0.031590827
10	0xba07fc40	-0.00051874295
11	0x3c3d7c6f	0.011565312
12	0xbd30ef60	-0.043197036
13	0x3cb2919c	0.021797948
14	0xbc5c119c	-0.013431933
15	0xbcbef729	-0.023311215
16	0xbc3fa3dd	-0.011696783
17	0xbce42c08	-0.027853027
18	0xbcb438e7	-0.02199979
19	0x38976e00	7.22073e-05
20	0x3c37d8a2	0.011221083
21	0x3c901f3e	0.017593022
22	0xbb7e2490	-0.0038779117
23	0xbd2e8196	-0.04260405
24	0xbd24c4a1	-0.040226582
25	0xbbaa907a	-0.005205211
26	0x3d09d694	0.033651903
27	0x3c1a6286	0.009422904
28	0x3d108947	0.035287168
29	0x3b301127	0.0026865692
30	0xbd2a417e	-0.041566364
31	0xbc848500	-0.0161767

fusion.2.weight f4 [1, 32]
0	0x3ccc1644	0.02491296
1	0xbd11a319	-0.035555933
2	0x3defe491	0.117135175
3	0xbd475491	-0.048664633
4	0x3c71fc90	0.014769688
5	0x3c9ac388	0.018892065
6	0x3dae495a	0.085100845
7	0x3dd410fa	0.103548005
8	0xbbfd02a0	-0.00772126
9	0xbdc78430	-0.0974201
10	0xbcf609e0	-0.030034006
11	0x3d41e678	0.047338933
12	0x3e12235f	0.14271306
13	0x3e39a4c4	0.1812926
14	0xbe29518a	-0.16535011
15	0xbe097c46	-0.13426313
16	0xbe0709eb	-0.13187377
17	0x3d10033e	0.035159342
18	0x3d1d3678	0.038382024
19	0xbdf3b45c	-0.11899635
20	0xbe22fd31	-0.15916897
21	0xbe00537c	-0.12531847
22	0xbe34f148	-0.17670166
23	0xbdce0252	-0.10059036
24	0x3e07bb01	0.1325493
25	0xbd437503	-0.047719013
26	0x3ad00730	0.0015871283
27	0x3cddafd2	0.027061377
28	0x3c167080	0.0091820955
29	0xbe45182c	-0.19247502
30	0x3e0f4a49	0.13993181
31	0xbdbfd86a	-0.093674496
