saved_models/beans_model.pt (torch, 85360 bytes, 7 tensors)

soil_net.0.weight f4 [64, 14]
0	0x3d809da5	0.06280068
1	0xbe44e2af	-0.19227098
2	0x3d0bbc18	0.034114927
3	0xbc6a982d	-0.014318508
4	0x3e11b2f8	0.14228427
5	0xbe3a1215	-0.1817096
6	0x3db6c612	0.08924498
7	0x3df4c77a	0.1195211
8	0xbe972be3	-0.2952567
9	0x3e4853d0	0.19563222
10	0xbe5fa1f3	-0.21839122
11	0xbdf6ce75	-0.12051097
12	0x3df10ca3	0.117699884
13	0xbe8d3d97	-0.27586052
14	0x3de9c19f	0.114138834
15	0xbcc07294	-0.023492135
16	0xbd876bda	-0.06612368
17	0x3c88e6b3	0.016711568
18	0xb9f12374	-0.00045993517
19	0x3dc68493	0.09693255
20	0xbc61d16a	-0.013782838
21	0x3e691f76	0.22765908
22	0x3c8c7b48	0.017148629
23	0x3e5dc90f	0.21658729
24	0x3e525267	0.20539246
25	0x3e68efe5	0.22747763
26	0xbe8f1f9c	-0.27953804
27	0xbd881e89	-0.06646449
28	0x3dce834c	0.10083637
29	0xbe469a06	-0.19394693
30	0x3e9098cb	0.28241572
31	0x3d00f4f5	0.03148361
32	0x3e6fe4f2	0.2342718
33	0xbdc89bda	-0.09795351
34	0x3e8fad15	0.2806174
35	0x3df0163d	0.117229916
36	0xbcf8bdeb	-0.030363997
37	0x3e7667ba	0.24063006
38	0xbe6b76a5	-0.22994478
39	0xbe63b78f	-0.22237991
40	0x3de4c6f0	0.11170757
41	0x3e0fa258	0.14026773
42	0x3d8bffcb	0.06835898
43	0x3e66da0d	0.22544117
44	0x3e53b7cc	0.20675582
45	0xbe0b224b	-0.135873
46	0x3e042416	0.1290439
47	0x3e89f452	0.26944214
48	0x3e0060f7	0.12536989
49	0xbe48b6cc	-0.19600981
50	0x3e927011	0.28601125
51	0x3cb56ed9	0.022147583
52	0xbd188212	-0.03723342
53	0xbde14d04	-0.11001018
54	0x3b893f46	0.004188451
55	0xbe80efe9	-0.25183037
56	0x3e5bf1a9	0.21478905
57	0x3e6ee736	0.23330387
58	0x3dd98da0	0.10622716
59	0xbe94b822	-0.29046732
60	0xbc028bcf	-0.007967903
61	0x3cd362f5	0.025804022
62	0xbda12ac2	-0.078694835
63	0xbe16f465	-0.14741667
64	0x3e3a1675	0.18172629
65	0x3db896ce	0.09013139
66	0xbd1ee8c3	-0.038796198
67	0xbe9966e0	-0.299613
68	0x3cc0f53a	0.023554433
69	0x3ddb1fc7	0.106994204
70	0xbe4cf15d	-0.20013948
71	0x3e038623	0.12844138
72	0x3d81b060	0.06332469
73	0xbd4afd0f	-0.04955774
74	0x3e006765	0.12539442
75	0x3bdf8302	0.0068210373
76	0x3dcfe7dc	0.101516455
77	0x3e0845a4	0.13307816
78	0xbd628013	-0.055297922
79	0x3e09529a	0.13410416
80	0x3e2ef829	0.17086853
81	0x3e1ea25a	0.1549162
82	0xb94a0288	-0.00019265164
83	0x3dc099f8	0.09404367
84	0x3e8b832b	0.2724851
85	0x3cd2cd60	0.025732696
86	0xbde328d2	-0.1109177
87	0x3e47603e	0.19470307
88	0x3e6ca078	0.23108089
89	0x3de0d848	0.109787524
90	0x3e143905	0.14474876
91	0xbd4a57a0	-0.049399972
92	0xbd3c43a6	-0.045962952
93	0xb9ee86b4	-0.0004549526
94	0xbc9d0b1a	-0.019170333
95	0xbc95cfba	-0.018287528
96	0xbde4fa86	-0.11180596
97	0x3e2c8380	0.16847038
98	0xbdc9953a	-0.09842916
99	0x3e6434e0	0.22285795
100	0xbe227c8e	-0.15867826
101	0xbe4d574b	-0.20052831
102	0x3d9262b8	0.07147735
103	0x3d841e86	0.064511344
104	0x3e5b8b84	0.2143994
105	0xbe3abe0c	-0.1823656
106	0x3d7f72da	0.06236539
107	0xbe141fb3	-0.14465217
108	0xbdc96783	-0.098341964
109	0x3ccaf6ce	0.024775889
110	0x3e552c3b	0.20817654
111	0x3e1a198d	0.1504881
112	0xbd9dc1ad	-0.07702956
113	0x3d8c6570	0.06855285
114	0xbdb0b8b9	-0.08628983
115	0x3e154049	0.14575304
116	0xbdc74d7f	-0.09731578
117	0x3e122ef2	0.1427572
118	0x3dcb86ca	0.09937818
119	0x3d4e414f	0.050355252
120	0xbe157fd3	-0.14599542
121	0xbe98effd	-0.29870597
122	0xbdcc03b4	-0.09961644
123	0xbe30882d	-0.17239447
124	0x3e5026c3	0.20327286
125	0x3d52f76e	0.0515055
126	0xbe6b6134	-0.22986299
127	0x3e448fab	0.1919543
128	0xbdd8d1ca	-0.10586889
129	0x3c95a2f0	0.018266171
130	0x3e081659	0.13289775
131	0xbe68d168	-0.22736132
132	0xbe504ee8	-0.203426
133	0x3e3e7688	0.18599904
134	0xbe1b8439	-0.15187158
135	0xbe5870f5	-0.2113684
136	0x3d92fc09	0.07176978
137	0x3d8a56a8	0.067548096
138	0x3d95f94c	0.0732294
139	0xbe901a69	-0.2814515
140	0x3e1b2393	0.15150289
141	0x3dcb9c23	0.0994189
142	0x3e514b5f	0.20438908
143	0x3e8aa8f3	0.27082023
144	0xbe64d597	-0.22347103
145	0xbd49e270	-0.049288213
146	0x3d0c058b	0.034184974
147	0xbdc7029e	-0.09717296
148	0x3db3dc41	0.087822445
149	0x3e3a378c	0.18185252
150	0xbd88cbb1	-0.06679476
151	0x3e8ea42a	0.27859622
152	0xbde47867	-0.111557774
153	0x3e9256e6	0.28581923
154	0x3cd5e3c4	0.026109584
155	0xbe0abcb5	-0.13548549
156	0xbd7e586c	-0.062096044
157	0x3e5eab24	0.21744972
158	0xbe50ee3b	-0.20403378
159	0x3d20434f	0.03912669
160	0xbe8011be	-0.25013536
161	0xbe41a9ee	-0.1891248
162	0xbd2a09e9	-0.041513357
163	0xbe7fcadf	-0.24979733
164	0x3bd00418	0.0063481443
165	0xbe83df9c	-0.25756538
166	0xbc93254a	-0.017962117
167	0x3df22904	0.11824229
168	0x3e930eae	0.28722137
169	0xbd431d48	-0.047635347
170	0x3e16f3a4	0.14741379
171	0x3e5468db	0.20743124
172	0xbd325f2d	-0.043547798
173	0xbe405acc	-0.18784636
174	0xbd2614ed	-0.0405473
175	0x3dfa4f03	0.122221015
176	0x3e4c3f5b	0.19946043
177	0xba3e61a2	-0.0007262473
178	0x3e696385	0.2279187
179	0x3d05e821	0.03269208
180	0xbe2bd5e1	-0.16780807
181	0x3bfe6089	0.0077629727
182	0x3e8ba5cd	0.27274933
183	0x3e36660f	0.1781237
184	0xbda71ab6	-0.081593916
185	0xbe22b81d	-0.15890546
186	0xbe646d8e	-0.22307417
187	0x3e8fc5f5	0.28080717
188	0x3e6ff131	0.23431851
189	0xbdb932c9	-0.090428896
190	0xbc5e8fee	-0.01358412
191	0x3e174627	0.14772855
192	0xbd38412a	-0.04498402
193	0xbdceb66d	-0.10093389
194	0xbd259c7f	-0.04043245
195	0xbd59d94c	-0.053185746
196	0xbd4aa3d3	-0.04947264
197	0x3db594ce	0.08866273
198	0xbe5e36f3	-0.21700649
199	0xbc96a937	-0.018391235
200	0x3e62befa	0.22143164
201	0xbe6148bf	-0.22000407
202	0x3e16551b	0.14680903
203	0xbde828d2	-0.11335911
204	0xbe67a297	-0.22620617
205	0xbd376b38	-0.044779986
206	0xbd86583a	-0.06559797
207	0xbdcf5d30	-0.10125196
208	0x3c217b68	0.0098560825
209	0x3e105fb5	0.1409901
210	0xbe017002	-0.12640384
211	0x3dc0f196	0.09421079
212	0xbe254128	-0.16138136
213	0xbe8cd2c1	-0.27504542
214	0xbde03ee0	-0.109494925
215	0x3e348a74	0.1763094
216	0xbe676ada	-0.22599354
217	0x3e0d19bd	0.1377935
218	0xbe1177c4	-0.14205843
219	0x3da444e8	0.08020955
220	0x3c85d629	0.016337471
221	0xbe109c7e	-0.14122197
222	0xbc29ffca	-0.010375926
223	0x3c1e0eb2	0.009647058
224	0xbdb017c0	-0.0859828
225	0xbd844ae9	-0.064596005
226	0xbd9bbe1e	-0.07604621
227	0x3dc5c67e	0.09657
228	0x3e3eeae5	0.18644293
229	0x3e7b115d	0.24518342
230	0xbe8243f2	-0.25442463
231	0xbe35f945	-0.1777087
232	0x3e7707d8	0.24124086
233	0x3e83472f	0.25640246
234	0x3bdaa932	0.0066730017
235	0xbe1fb90a	-0.1559793
236	0xbdeac4b1	-0.11463297
237	0x3daa2be5	0.083091535
238	0x3dced75d	0.10099671
239	0xbdd531c2	-0.10409881
240	0x3dbc6c58	0.092003524
241	0xbded0264	-0.115727216
242	0xbe63c68d	-0.2224371
243	0x3c3a0e6d	0.011355978
244	0xbe35dcc7	-0.17760001
245	0x3e090ab8	0.13382995
246	0xbe7c3d90	-0.24632859
247	0x3e050f06	0.12994012
248	0xbe63bcd4	-0.22240001
249	0xbe97cc66	-0.2964813
250	0xbd8f2718	-0.069898784
251	0x3dcd977a	0.100386575
252	0x3dc49500	0.09598732
253	0xbe00b91b	-0.12570612
254	0xbd2bdaa6	-0.041956566
255	0x3e3fab2d	0.18717642

soil_net.0.bias f4 [64]
0	0xbe6d8efe	-0.23199078
1	0xbe31fd2b	-0.17381732
2	0xbb841ab0	-0.0040315017
3	0x3e4f80ea	0.2026402
4	0xbd9a217f	-0.0752592
5	0x3e493314	0.19648391
6	0x3e1a04c2	0.15040877
7	0xbe5b3a74	-0.21409017
8	0xbe006a3d	-0.12540527
9	0x3e6255e7	0.22103082
10	0x3d057579	0.032582734
11	0xbe2b3991	-0.16721179
12	0x3d1cfc35	0.03832646
13	0x3df6cd81	0.120509155
14	0xbbc75b8b	-0.006083911
15	0xbcc32f65	-0.02382631
16	0xbccfcc3f	-0.025365947
17	0xbd06cd02	-0.032910354
18	0xbdc666c5	-0.096875705
19	0xbe32a911	-0.17447306
20	0xbe49dcde	-0.1971316
21	0x3dc38574	0.095469385
22	0x3d134a45	0.0359595
23	0x3c1cda5b	0.009573544
24	0x3e944945	0.2896215
25	0xbe5063e8	-0.20350611
26	0xbdda09a5	-0.10646371
27	0xbe7bcf38	-0.24590766
28	0xbe2f195d	-0.17099519
29	0xbd9a3fc4	-0.075316936
30	0xbd907844	-0.07054189
31	0x3e812cdc	0.25229537
32	0x3e13d6e7	0.14437447
33	0xbdfb981a	-0.122848704
34	0x3e0e1beb	0.13877837
35	0x3e7c01e3	0.24610095
36	0x3d8344fb	0.06409641
37	0x3e305efb	0.17223732
38	0x3e173751	0.14767195
39	0xbc970e9e	-0.018439587
40	0xbe727b84	-0.2367993
41	0xbe6b4f4f	-0.22979473
42	0xbcd7dd82	-0.02635074
43	0x3e2ff49e	0.17183158
44	0xbcf5487f	-0.029941795
45	0x3d88c151	0.06677497
46	0xbdbe0275	-0.092778124
47	0xbe0a383d	-0.13498016
48	0x3e888f31	0.26671746
49	0xbe53f260	-0.20697927
50	0x3caa6ee2	0.020804826
51	0xbbc6426d	-0.006050399
52	0xbe07ed6b	-0.13274162
53	0x3df01a8b	0.11723813
54	0x3e0cf7b9	0.13766374
55	0xbe203553	-0.15645342
56	0x3e5764bd	0.21034522
57	0x3d8dfc52	0.06932892
58	0xbe3801a5	-0.17969377
59	0x3e553623	0.20821433
60	0x3e24cd75	0.16094
61	0x3e2aeedc	0.1669268
62	0xbd983871	-0.0743264
63	0x3d405bac	0.046962425

soil_net.2.weight f4 [32, 64]
0	0x3e175b4c	0.1478092
1	0x3cf71331	0.030160518
2	0x3d0a0e37	0.033704963
3	0xbbadab28	-0.0052999444
4	0x3cec24eb	0.028826198
5	0xbcce0dc1	-0.025153043
6	0xbc3ad2fd	-0.011402843
7	0x3d90a6e8	0.07063085
8	0x3df4f415	0.119606175
9	0x3de01c3c	0.10942885
10	0x3d442dac	0.04789512
11	0xbda7578f	-0.08170997
12	0x3d0061c7	0.031343248
13	0x3e04bb57	0.1296209
14	0xbd5aad05	-0.05338766
15	0x3d13e644	0.03610827
16	0x3d961cd3	0.073297165
17	0xbcfa790e	-0.030575301
18	0x3dda38fe	0.10655402
19	0xbc7a1a26	-0.015265023
20	0x3cae3645	0.021266112
21	0x3da56958	0.08076733
22	0xbd8c1524	-0.0683997
23	0xbceddf31	-0.02903709
24	0x3d17a163	0.037019145
25	0x3dc25fa9	0.09490902
26	0x3c2361c9	0.009972044
27	0x3b87b77e	0.004141747
28	0x3da530d8	0.08065957
29	0x3db0d046	0.08633475
30	0x3cf51bab	0.02992042
31	0xbd931345	-0.0718141
32	0xbbd86593	-0.0066039055
33	0xbd8e097b	-0.06935402
34	0xbd78bba5	-0.060725827
35	0x3dedbdfb	0.116085015
36	0x3e126efc	0.1430015
37	0xbc0410c9	-0.0080606425
38	0x3e0b6ad5	0.13614972
39	0x3dbbd934	0.091722876
40	0xbdb86aab	-0.0900472
41	0xbd81a9b4	-0.063311964
42	0x3d2a0d73	0.041516732
43	0xbdbf4057	-0.09338444
44	0x3dedb1aa	0.11606152
45	0x3c5b6b98	0.013392352
46	0xbdb315c4	-0.08744386
47	0x3e03b1c9	0.12860788
48	0x3e045b54	0.12925464
49	0x3c491ebb	0.012275393
50	0x3dd030f3	0.10165586
51	0xbd823b6d	-0.06358991
52	0xbc28e366	-0.010308122
53	0x3c9ea5a2	0.01936609
54	0x3d418f37	0.04725572
55	0x3d2aba00	0.04168129
56	0x3e1c2b62	0.15250924
57	0x3de0bc0c	0.10973367
58	0xbd3d670c	-0.04624085
59	0x3d8cf1c8	0.068820536
60	0x3dee9932	0.116503134
61	0x3dcccfbe	0.10000561
62	0x3d61c22b	0.055116814
63	0xbd991111	-0.07473958
64	0xbda3ed50	-0.08004248
65	0xbdf74cab	-0.1207517
66	0xbc0d0fc6	-0.008609718
67	0x3db5ce81	0.08877278
68	0xbe021934	-0.12704927
69	0x3ceaaee1	0.028647842
70	0xbda2bb2a	-0.07945855
71	0xbd87425d	-0.06604455
72	0x3d7a5369	0.061114702
73	0x3ccbc5b7	0.024874551
74	0xbd6d9c29	-0.058010254
75	0x3d91490e	0.07094012
76	0xbd12cc68	-0.03583947
77	0xbd5bd8cd	-0.053673554
78	0xbe05b9d2	-0.13059166
79	0xbcbefe4c	-0.023314618
80	0xbac528b5	-0.0015042039
81	0xbdae92dd	-0.08524106
82	0x3cfceb84	0.030874021
83	0x3cde35a6	0.027125191
84	0xbd13452b	-0.035954636
85	0xbddf1161	-0.10891987
86	0xbe020ae5	-0.12699468
87	0xbdde4489	-0.10852916
88	0xbdb1e352	-0.08685936
89	0xbc0a0792	-0.008424656
90	0xbda87e65	-0.08227233
91	0x3d9b2354	0.07575098
92	0xbdc6fe4f	-0.09716474
93	0xbd662bf1	-0.05619425
94	0xbdd8436c	-0.10559735
95	0xbe200fcb	-0.15631025
96	0xbd67d949	-0.056603704
97	0x3ac6b2ec	0.0015159524
98	0x3d061e5c	0.032743797
99	0xbdb5d075	-0.08877651
100	0xbd918e7e	-0.07107256
101	0x3c99574f	0.01871839
102	0xbe1dcaa9	-0.1540934
103	0x3d21ea32	0.039529987
104	0x3da0ae27	0.07845717
105	0xbdb64284	-0.088994056
106	0xbe0bce9a	-0.13653031
107	0xbc2725e7	-0.010201908
108	0x3d0f0382	0.034915455
109	0xbbc0cde8	-0.005883921
110	0xbb9dfc29	-0.0048213196
111	0xbdbdc094	-0.09265247
112	0xbc931d00	-0.017958164
113	0x3d8befd9	0.06832857
114	0x3d07f6d1	0.033194367
115	0xbe099b16	-0.13438067
116	0xbce48244	-0.027894147
117	0xbd217ea9	-0.039427433
118	0xbcb4decf	-0.0220789
119	0xbe13db13	-0.14439039
120	0xbdc2c944	-0.095110446
121	0xbcb1537e	-0.021646257
122	0xbcd7038f	-0.026246814
123	0x3d325564	0.043538466
124	0x3d56cfa3	0.05244411
125	0xbda0b746	-0.07847457
126	0xbd45f6a2	-0.04833091
127	0x3d91794e	0.07103215
128	0xbdd428ca	-0.103593424
129	0xbd156375	-0.036471803
130	0x3db4f6d6	0.08836143
131	0xbdc11f1c	-0.09429762
132	0xbd6b5dc8	-0.057462484
133	0xbe09e302	-0.13465503
134	0x3db19ec6	0.08672862
135	0x3d8a04d3	0.067392014
136	0xbe15a25b	-0.14612715
137	0xbe12cf51	-0.14336897
138	0xbc59e892	-0.013300078
139	0xbd8a1665	-0.06742553
140	0xbe191fff	-0.14953612
141	0x3d5b13ae	0.053485565
142	0x3ced152a	0.028940756
143	0x3d95c2be	0.07312535
144	0xbd679cda	-0.05654607
145	0x3cdbbe1e	0.026824053
146	0xbdf1e87a	-0.118119195
147	0xbdbb7066	-0.09152298
148	0x3db23904	0.08702281
149	0xbe1f9465	-0.15583952
150	0xbd14fcd8	-0.036373943
151	0xbe1f790e	-0.15573522
152	0x3d11177e	0.035422795
153	0xbe0b7aa0	-0.13620996
154	0x3bd8f8c2	0.006621451
155	0xbdc73947	-0.09727722
156	0x3d953a74	0.0728654
157	0x3d49ef54	0.049300507
158	0xbcab11e4	-0.020882554
159	0xbda92725	-0.08259419
160	0xbe1d9780	-0.15389824
161	0x3c8f04eb	0.0174584
162	0x3c8fa2b1	0.017533632
163	0xbd5769c1	-0.05259109
164	0x3d506dd9	0.05088601
165	0x3d0b97c0	0.034080267
166	0xbd6fae28	-0.058515698
167	0xbe19071a	-0.14944115
168	0x3da139b0	0.07872331
169	0xbda33368	-0.07968789
170	0xbd96d9ed	-0.07365785
171	0x3da24f34	0.07925263
172	0x3d78c4fa	0.060734726
173	0xbcd95372	-0.026529048
174	0x3d6e93a9	0.05824629
175	0x3d7a0c12	0.061046667
176	0xbd9b1df7	-0.07574075
177	0xbe1906e8	-0.14944041
178	0x3d31de13	0.043424677
179	0xbc4710c8	-0.012149997
180	0xbdc555cc	-0.09635505
181	0xbe02b903	-0.12765889
182	0xbdb36358	-0.08759183
183	0xbb80ac4e	-0.0039267903
184	0x3dbcc4d3	0.09217229
185	0xbbdfeccd	-0.006833649
186	0x3d510b2a	0.051036038
187	0xbe0204e8	-0.12697184
188	0x3cb86279	0.022507893
189	0x3d878348	0.06616837
190	0xbcfe3a42	-0.031033639
191	0xbced141e	-0.028940257
192	0xbc6217ab	-0.013799588
193	0x3ba6d061	0.0050907587
194	0x3d828858	0.06373662
195	0x3e149fd7	0.14514099
196	0x3de1312e	0.109957084
197	0xbdac8700	-0.08424187
198	0x3c669bc6	0.014075225
199	0x3d4fc2d0	0.050722897
200	0x3d5c3da6	0.05376973
201	0x3d06deb1	0.03292722
202	0xbcb0a815	-0.021564523
203	0xb8bcadf0	-8.996937e-05
204	0x3d89ad5d	0.067225195
205	0x3dfec0de	0.1243913
206	0x3dd1cd9f	0.10244297
207	0x3d4fd738	0.050742358
208	0xbdacf389	-0.08444888
209	0x3dddef0f	0.108366124
210	0x3d6ce32f	0.057833847
211	0xbbaa9668	-0.005205918
212	0x3b3fbd72	0.0029257205
213	0x3d8c3221	0.06845499
214	0x3bef2490	0.0072980598
215	0x3db947ce	0.09046899
216	0xbd818c1a	-0.063255504
217	0xbda8e769	-0.08247263
218	0x3d6e139d	0.058124173
219	0xbdae1255	-0.0849959
220	0x3d7e1e3f	0.062040564
221	0xbaa6f5c1	-0.0012738035
222	0xbd0ef48a	-0.03490118
223	0xbc91fa7c	-0.017819636
224	0x3b4cfac8	0.0031277407
225	0x3e1655e8	0.14681208
226	0x3dbfba8a	0.093617514
227	0x3d0e6a50	0.034769356
228	0xbcd57049	-0.026054518
229	0xbc5ba80e	-0.013406767
230	0x3e10d236	0.14142689
231	0xbdb401fa	-0.087894395
232	0x3d597bf3	0.053096723
233	0xbdbbbf3e	-0.09167336
234	0x3dc4ffb1	0.09619082
235	0xbb2bdbb0	-0.0026223473
236	0x3e064bae	0.13114807
237	0xbd6b3e88	-0.05743268
238	0x3de1af1f	0.1101973
239	0xbd8f7afe	-0.07005881
240	0x3e15d049	0.14630236
241	0x3dd5c7d6	0.10438506
242	0x3dbac859	0.091202445
243	0x3c9105bc	0.01770293
244	0x3d0acab1	0.033884708
245	0xbd37b552	-0.044850655
246	0x3e167428	0.14692748
247	0xbd0beae6	-0.034159563
248	0x3daab169	0.083346196
249	0xbd99a03b	-0.07501265
250	0x3e0447b5	0.12917979
251	0xbd06d3a2	-0.032916673
252	0x3dee536d	0.11637006
253	0x3dabc840	0.08387804
254	0xbd5d7ccf	-0.054074105
255	0xbc175e25	-0.009238754

soil_net.2.bias f4 [32]
0	0xbc0cae42	-0.008586468
1	0xbda984ef	-0.08277308
2	0xbc2532cf	-0.0100829145
3	0x3d4a781a	0.049430944
4	0x3e094b9b	0.13407747
5	0x3bade149	0.005306397
6	0x3dbaed2d	0.09127269
7	0xbd64ffa0	-0.055907845
8	0xbd42c408	-0.04755023
9	0xbe1c3828	-0.15255797
10	0xbda2f6c5	-0.07957224
11	0xbd55a05a	-0.052154876
12	0x3d5cdd02	0.053921707
13	0x3d4af443	0.049549352
14	0xbcb34947	-0.021885527
15	0x3dfc80d4	0.123292595
16	0x3dfe4b59	0.12416715
17	0xbc20686b	-0.00979052
18	0xbd4cf4af	-0.050038036
19	0xbc9c332d	-0.019067371
20	0xbdad097c	-0.084490746
21	0xbd6d31d7	-0.05790886
22	0x3c6f2a87	0.014597542
23	0x3c9b5855	0.018963018
24	0xbd06004e	-0.032715134
25	0x3de92781	0.11384488
26	0x3d0d1292	0.03444154
27	0xbd46c808	-0.04853061
28	0xbd3352df	-0.043780204
29	0xbcf20f65	-0.029548356
30	0x3d50f456	0.051014267
31	0x3d3a22a6	0.0454432

fusion.0.weight f4 [32, 544]
0	0xbd2bb0a0	-0.04191649
1	0x3d1be161	0.038056735
2	0xbcb4aec9	-0.022056
3	0x3ce0e88a	0.027454633
4	0xbc5f0888	-0.013612874
5	0xbd293b49	-0.041316304
6	0x3ca45156	0.020058315
7	0xbd2e5ca9	-0.042568836
8	0xbbf9b2c8	-0.0076201893
9	0xbc0bae90	-0.008525506
10	0x3ce3d856	0.027813118
11	0xbb25d480	-0.0025303662
12	0x3c768cc0	0.015048206
13	0xbc278e3c	-0.010226782
14	0x3cccd0a6	0.025001835
15	0x3c036864	0.008020494
16	0xbcc1c7a9	-0.023654776
17	0xbce577b0	-0.028011173
18	0xbcb3a3c3	-0.021928674
19	0x3ca810fa	0.020515908
20	0xbd224306	-0.0396147
21	0x3d1d0949	0.038338933
22	0xbd18dd80	-0.037320614
23	0xbd190d3e	-0.037366144
24	0x3c052ce0	0.008128375
25	0x3c759ab0	0.014990494
26	0x3cc0ec36	0.023550134
27	0xbb9b03e0	-0.0047306865
28	0xbcfa8711	-0.030581983
29	0xbc490894	-0.012270112
30	0x3d0a7071	0.03379864
31	0x3c0a76b4	0.008451153
32	0xbcd27601	-0.025691034
33	0xbcdeec7d	-0.027212376
34	0xbc8b3e9a	-0.016997624
35	0xbcb96289	-0.022629993
36	0xbc68dcb6	-0.014212778
37	0xbc80abcf	-0.015706925
38	0xbcdcc149	-0.026947634
39	0x3c9df390	0.019281179
40	0xbd1840d3	-0.037171196
41	0xbd2872d1	-0.041125122
42	0x3cb39b42	0.021924619
43	0xbc315048	-0.010822363
44	0xbc70fc96	-0.014708659
45	0xba676340	-0.000882674
46	0xbc6a3332	-0.0142944325
47	0xbd0ff3db	-0.035144668
48	0xbc8f3243	-0.017480021
49	0x3cb13352	0.021630917
50	0x3d19b38f	0.037524756
51	0x3ce1e42a	0.027574617
52	0xbc018924	-0.007906232
53	0x3ce8f60a	0.028437633
54	0xbb2a11c0	-0.0025950521
55	0x3c90a3e2	0.01765627
56	0xbb964c30	-0.004586719
57	0x3d1ffb73	0.03905816
58	0x3cdabe6e	0.026702132
59	0x3ccece52	0.025244866
60	0xbcad56b3	-0.021159505
61	0xbcae9741	-0.021312358
62	0x3cd0a13e	0.025467511
63	0xbcae3d16	-0.021269362
64	0x3c74a0b4	0.014930893
65	0x3c8d3f10	0.017241985
66	0x3ce51cc2	0.027967814
67	0x3d232a1d	0.039835084
68	0xbc7341b6	-0.01484721
69	0xbcdf8786	-0.027286302
70	0xbd1aee8f	-0.037825163
71	0x3ce1f0de	0.027580675
72	0x3c396c00	0.011317253
73	0xbcdb5dd2	-0.026778135
74	0xbb4b8a10	-0.0031057633
75	0xbba095f0	-0.0049006864
76	0xbc75e538	-0.015008263
77	0xbd126e7a	-0.03574989
78	0x3ce566c2	0.0280031
79	0xbd26373f	-0.04058003
80	0x3c9d1c30	0.01917848
81	0xbd0d59c4	-0.034509435
82	0xbc269ee0	-0.010169715
83	0xbc4e23a2	-0.012581738
84	0xbb530340	-0.0032197982
85	0xbcd628e2	-0.026142541
86	0xbc670698	-0.014100693
87	0x3d017b27	0.031611588
88	0xbcb47fd1	-0.022033604
89	0x3cb1d802	0.021709446
90	0xbcbcdc3d	-0.023054237
91	0x3d01cee3	0.031691443
92	0xbc91cad7	-0.017796917
93	0x3b310000	0.0027008057
94	0x3d0a34fd	0.03374194
95	0xbcef0728	-0.029178217
96	0x3ce345da	0.027743269
97	0xbca9a7d3	-0.020709908
98	0x3a2b9580	0.00065454096
99	0xbcacb0be	-0.021080371
100	0xbc969f66	-0.018386554
101	0xbce6db2f	-0.028180687
102	0xbb850c00	-0.0040602684
103	0x3bfb56c8	0.0076702572
104	0xbd0b2513	-0.033970904
105	0x3c66610c	0.014061224
106	0xbb3017f0	-0.0026869737
107	0xbc9a47eb	-0.018833121
108	0xbcec9546	-0.028879773
109	0xbd01c36c	-0.03168051
110	0x3cadac62	0.021200363
111	0x3d0cf69f	0.034414884
112	0x3b3e02c0	0.0028993338
113	0x3d1c16bd	0.038107622
114	0xbc6b0c4a	-0.014346192
115	0x3cb5eee2	0.022208635
116	0x3cb57efe	0.022155281
117	0x3ba88610	0.0051429346
118	0x3d02f427	0.031971123
119	0x3c77b4f8	0.01511883
120	0x3c42e2d4	0.0118949
121	0xbd0c1724	-0.034201756
122	0xbca1be25	-0.019743988
123	0x3bd18d58	0.0063950233
124	0xbd2cb27b	-0.0421624
125	0xbd039f51	-0.032134358
126	0x3ce97a46	0.028500687
127	0x3cf10102	0.029419426
128	0x3a4b2fc0	0.0007750951
129	0x3c6e24c8	0.0145351365
130	0xbc25b3dc	-0.010113683
131	0x3c906118	0.017624423
132	0xbc27cde4	-0.010241959
133	0x3d017a8d	0.031611014
134	0xbd21909a	-0.039444543
135	0x39895d80	0.0002620034
136	0xbcc1872a	-0.023624022
137	0xbccc7754	-0.024959244
138	0xbcf1d904	-0.029522426
139	0x3b9f7490	0.0048661903
140	0xbc9ff7cb	-0.019527337
141	0xbab0df40	-0.0013494268
142	0xbbad9650	-0.0052974597
143	0xbc82e7da	-0.015979696
144	0xbd157215	-0.03648575
145	0xbc755886	-0.014974719
146	0x3c583298	0.013195656
147	0x3bcf9e80	0.0063360333
148	0xbb24d100	-0.0025148988
149	0x3cd03662	0.025416557
150	0xbc16f1f8	-0.009212963
151	0xbd0c5af0	-0.034266412
152	0xbcbdd96f	-0.02317497
153	0x3d103073	0.035202455
154	0xbca3bfe4	-0.019988962
155	0xbced37e5	-0.028957317
156	0x3d1a7219	0.03770647
157	0xbc079bec	-0.008276921
158	0xbc72ecfc	-0.014827009
159	0xbc1a58cc	-0.009420585
160	0xbcd69c60	-0.026197612
161	0x3d2cd497	0.04219493
162	0xbc6c6666	-0.014428711
163	0xbd2e02b7	-0.042483058
164	0x3b1d9ba0	0.0024049059
165	0xbc654a12	-0.0139947105
166	0x3c88053c	0.016604058
167	0xbd26e869	-0.040748987
168	0x3b9c3890	0.004767485
169	0xbd03b302	-0.032153137
170	0x3a8b79e0	0.001064118
171	0x3849b800	4.8093498e-05
172	0xbd221e06	-0.039579414
173	0xbd237385	-0.03990509
174	0x3ca57786	0.020198595
175	0xbccb2e5f	-0.024802385
176	0xbce85700	-0.028361797
177	0xbd2092eb	-0.039202612
178	0xbbe8d940	-0.0071059763
179	0xbd22879a	-0.0396801
180	0xbb1c04c0	-0.0023806542
181	0xbacf71e0	-0.0015826784
182	0xbca0b678	-0.019618258
183	0xbaf02940	-0.001832284
184	0x3bedf198	0.0072614662
185	0xbcb3e7c0	-0.021961093
186	0x3c397cfc	0.0113213025
187	0xbad30240	-0.0016098693
188	0x3cd3fca2	0.0258773
189	0xbc5eeb18	-0.013605855
190	0x3d2bd27d	0.041948784
191	0xbd0eace8	-0.034832865
192	0x3cc8630e	0.024461295
193	0xbccd8c16	-0.025091212
194	0xbcfade26	-0.030623507
195	0x3d2d87ff	0.042366024
196	0xbc776eae	-0.015102072
197	0xbb8259d8	-0.0039779954
198	0xbb9d52b8	-0.0048011206
199	0xbcfd74be	-0.030939456
200	0xbd1f328b	-0.03886656
201	0x3c82e04e	0.015976097
202	0x3d0d53bd	0.034503687
203	0xbd2ee0d3	-0.042694878
204	0x3d24ece1	0.040264968
205	0x3ba83828	0.0051336475
206	0x3bcfd980	0.0063430667
207	0x3bd88d98	0.006608676
208	0x3c36f000	0.011165619
209	0x3cf15b52	0.02946249
210	0xbc155e34	-0.009116698
211	0xbcda8ac5	-0.026677499
212	0x3d058bad	0.03260391
213	0x3cde2416	0.027116816
214	0x3c84cdea	0.016211469
215	0x3c932c42	0.01796544
216	0x3a910400	0.0011063814
217	0x3c46d8fc	0.012136694
218	0x3ccdadd2	0.025107298
219	0x3b8b3000	0.0042476654
220	0xbcce3d6a	-0.025175769
221	0xbd2ce586	-0.042211078
222	0xbd05ab40	-0.03263402
223	0xbd18eb1e	-0.0373336
224	0xbc5657b8	-0.013082437
225	0x3d22bfad	0.039733578
226	0x3ce05dea	0.027388532
227	0x3b5ea9c0	0.003397569
228	0xbcb218af	-0.021740286
229	0xbd137b4c	-0.036006257
230	0x3cb8a3e6	0.02253909
231	0x3c60591c	0.01369312
232	0x3d1bf11b	0.038071733
233	0x3bcddc90	0.0062823966
234	0xbb1f5350	-0.0024311133
235	0x3cf7bc3e	0.030241128
236	0x3c5fb7d4	0.013654668
237	0xbcad8b6d	-0.021184647
238	0xbd1bc126	-0.038025998
239	0xbd145220	-0.036211133
240	0x3bc0aaa8	0.005879719
241	0x3c73ab18	0.014872335
242	0x3c502a30	0.012705371
243	0x3cb539e6	0.022122335
244	0x3cfe93f6	0.031076413
245	0xbd1cb186	-0.038255237
246	0xbd1df8a3	-0.038567197
247	0xbc986c8c	-0.018606447
248	0x3c4995c4	0.012303773
249	0x3cd3356e	0.025782313
250	0x3c822538	0.015886888
251	0xbd212b8b	-0.039348166
252	0x3c8e9ee2	0.017409746
253	0xbd09538f	-0.033526953
254	0xbd2c1d5d	-0.04202019
255	0x3d1a6275	0.037691552

fusion.0.bias f4 [32]
0	0xbbf36470	-0.0074277446
1	0xbc3e6091	-0.011619703
2	0x3c0b83b3	0.008515286
3	0xbd1b57b7	-0.03792545
4	0xbd30afef	-0.043136533
5	0x3ccba4ca	0.024858851
6	0x3ce74de6	0.028235387
7	0x3cec61aa	0.028855164
8	0x3d931210	0.071811795
9	0xbcedf590	-0.029047757
10	0x3bb53f27	0.00553121
11	0x3b8ef720	0.0043629557
12	0xbd1cf2fc	-0.038317665
13	0x3c981f5e	0.018569645
14	0x3d0e965a	0.034811355
15	0x3b907d36	0.0044094576
16	0x3d0524d6	0.032505833
17	0xbc1d6e76	-0.0096088555
18	0xbc00d512	-0.0078633
19	0xbd419ecb	-0.047270577
20	0x3d12cd9d	0.03584062
21	0xbceb3827	-0.028713299
22	0xbcdcc107	-0.026947511
23	0xbbc03780	-0.005865991
24	0xbaf748ae	-0.0018866265
25	0xbc2a820c	-0.010406982
26	0x3d4df7f5	0.0502853
27	0x3d2ec997	0.04267272
28	0x3cf3e942	0.029774312
29	0x3d023016	0.03178414
30	0x3c9997e9	0.018749194
31	0x3d7088f2	0.05872435

fusion.2.weight f4 [1, 32]
0	0x3cbbe7c8	0.02293767
1	0x3df689cb	0.12038001
2	0x3d83c60e	0.0643426
3	0xbd677f20	-0.05651772
4	0xbdc11732	-0.09428252
5	0xbe18ebf8	-0.14933765
6	0x3e19dd09	0.15025724
7	0xbe30482c	-0.17215031
8	0x3e2b4fca	0.16729656
9	0xbd6d3a0a	-0.05791668
10	0xbd91e535	-0.07123796
11	0x3e1e2bb5	0.1544636
12	0xbd598103	-0.05310155
13	0x3da208d7	0.07911842
14	0x3e034a39	0.12821282
15	0x3e125375	0.14289649
16	0x3d9fe6df	0.07807707
17	0x3d87e564	0.0663555
18	0xbddd32d6	-0.10800712
19	0xbdc98369	-0.098395176
20	0xbe0d47b6	-0.13796887
21	0xbd37b0c0	-0.044846296
22	0x3c7b6c90	0.015345708
23	0xbe245de1	-0.16051437
24	0x3962c16f	0.00021625099
25	0xbe1d85af	-0.15383027
26	0x3d5f2688	0.054480106
27	0xbdea880a	-0.11451729
28	0xbc8dd410	-0.017313033
29	0x3e049d96	0.1295074
30	0x3e4a6488	0.19764912
31	0x3d3a9fe0	0.045562625
