saved_models/maize_model.pt (torch, 85360 bytes, 7 tensors)

soil_net.0.weight f4 [64, 14]
0	0x3e8f1f06	0.27953357
1	0xbe26695b	-0.16251127
2	0xbe96491d	-0.29352656
3	0x3d4396f9	0.0477514
4	0x3e25d50d	0.16194554
5	0xbd9c38f6	-0.07628052
6	0x3dab0f8f	0.08352577
7	0xbe0713fd	-0.13191219
8	0xbdac0cfa	-0.084009126
9	0xbe7b48d3	-0.24539499
10	0xbe4eaa1c	-0.20182079
11	0xbd36b274	-0.04460378
12	0xbd89a29e	-0.0672047
13	0x3d031759	0.032004688
14	0xbd3fb06d	-0.046799112
15	0xbc922c63	-0.01784343
16	0x3e889f4a	0.26684028
17	0xbe34bb80	-0.1764965
18	0xbe594993	-0.21219473
19	0xbe2b73a6	-0.16743335
20	0xbe145624	-0.14485985
21	0xbe43d611	-0.19124629
22	0x3d0fa992	0.035073824
23	0x3e78538a	0.24250618
24	0x3e4dd4c2	0.20100692
25	0xbdb02843	-0.08601429
26	0x3ca4f4f9	0.020136343
27	0xbe725eb6	-0.23668942
28	0x3cecf816	0.02892689
29	0x3e30b83c	0.1725778
30	0x3e89aa9d	0.2688798
31	0xbda1c120	-0.07898164
32	0xbd735205	-0.05940439
33	0xbab54a70	-0.0013831388
34	0x3e2259b3	0.1585453
35	0xbe2ae4dd	-0.16688867
36	0xbdfe3027	-0.12411528
37	0x3e72c9f7	0.23709856
38	0x3e3734c7	0.17891227
39	0x3e1f9fa1	0.15588237
40	0x3e21d989	0.1580564
41	0xbe5e10d1	-0.21686102
42	0x3d098725	0.03357615
43	0x3e56dbc6	0.20982274
44	0xbe4db8ac	-0.20089978
45	0x3d0d8dbf	0.034559008
46	0x3d983401	0.07431794
47	0x3e260d2c	0.16215962
48	0xbe161304	-0.14655691
49	0x3e59f205	0.2128373
50	0x3e4a0ad5	0.19730695
51	0x3dca250f	0.098703496
52	0x3d9d889a	0.0769207
53	0x3d3bd2de	0.045855395
54	0xbc487b93	-0.012236494
55	0x3e088180	0.1333065
56	0x3e31b904	0.17355734
57	0xbd4ffdfa	-0.05077932
58	0xbcd8864a	-0.026431222
59	0xbe117dd9	-0.14208163
60	0xbe2e09e1	-0.16995956
61	0x3dd7176c	0.10502514
62	0xbdc78b0f	-0.0974332
63	0xbdde1783	-0.10844328
64	0x3e7cf3e5	0.24702413
65	0x3e57aca7	0.21061955
66	0x3d31320c	0.04326062
67	0x3e276199	0.16345824
68	0x3d1cd368	0.03828755
69	0x3de5922e	0.11209522
70	0x3e94ecc6	0.29086894
71	0xbe6f9ee2	-0.23400453
72	0xbd0e2c77	-0.034710374
73	0x3d7356dc	0.059409007
74	0x3e56d923	0.20981269
75	0xbd5017ae	-0.050803833
76	0x3e719358	0.23591363
77	0x3e8e7e78	0.27830863
78	0x3dd69daa	0.10479291
79	0x3db608a8	0.0888837
80	0xbd78843e	-0.06067299
81	0xbd9d6b07	-0.076864295
82	0xbc986eb2	-0.018607471
83	0xbda3d393	-0.07999339
84	0xbe0108a3	-0.12600951
85	0x3d855997	0.065112285
86	0x3e66bcb9	0.2253293
87	0x3ddcf0c3	0.10788109
88	0xbe09c364	-0.13453442
89	0x3e203466	0.15644988
90	0xbcf87c01	-0.030332567
91	0x3e6236d9	0.22091235
92	0x3cf3cb42	0.029760007
93	0xbe69c288	-0.22828114
94	0x3e3e32a3	0.18574004
95	0xbe63152a	-0.22176042
96	0x3e783d02	0.24242023
97	0x3e5032ca	0.20331874
98	0x3d82b598	0.063822925
99	0xbe070c15	-0.13188203
100	0xbdbc8137	-0.09204333
101	0x3d9a4698	0.07532996
102	0xbe223afe	-0.15842816
103	0x3de86a3a	0.11348386
104	0xbc292468	-0.010323621
105	0x3da31536	0.0796303
106	0xbe5b8d0e	-0.21440527
107	0x3bea32f6	0.0071471883
108	0x3e8177f1	0.2528682
109	0xbe027a7b	-0.12742035
110	0x3e6707fa	0.22561637
111	0xbe1b671b	-0.1517605
112	0x3e020aa3	0.1269937
113	0x3d81c94d	0.06337223
114	0x3e0831a7	0.13300191
115	0x3de929bd	0.11384914
116	0x3e4eb28b	0.20185296
117	0x3c2a1cdd	0.010382858
118	0xbe4e81a5	-0.20166643
119	0x3da58967	0.08082848
120	0xbd715aae	-0.05892437
121	0xbdbfd8b4	-0.09367505
122	0xbe30a394	-0.172499
123	0x3e0a90dd	0.13531823
124	0xbe954a35	-0.29158178
125	0xbe1989a1	-0.14993908
126	0xbe72220e	-0.23645803
127	0x3e063803	0.13107304
128	0x3d8696f5	0.065717615
129	0xbe1de7b6	-0.15420422
130	0xbe7626a7	-0.24038182
131	0x3cbc0d25	0.022955487
132	0xbe40a56b	-0.18813102
133	0xbe08371f	-0.13302277
134	0x3e05e110	0.13074136
135	0x3e299a96	0.16562876
136	0x3e29e0c5	0.16589649
137	0xbdeded98	-0.11617583
138	0xbe629fad	-0.22131224
139	0x3e6a53be	0.22883508
140	0xbe3118a8	-0.17294562
141	0xbe53170c	-0.2061426
142	0x3dba060a	0.09083183
143	0x3e3ed4e3	0.18635897
144	0xbcc541eb	-0.024079284
145	0x3dd1f998	0.10252684
146	0xbe77adc0	-0.24187374
147	0xbc968805	-0.018375406
148	0x3e241be8	0.1602627
149	0x3ce339d2	0.027737532
150	0xbe37fee7	-0.17968331
151	0xbd133e9c	-0.03594838
152	0x3e49a931	0.19693448
153	0x3e034d99	0.1282257
154	0x3d34fcce	0.044186406
155	0xbd297a7e	-0.041376583
156	0xbe0a5206	-0.13507852
157	0x3e5118c3	0.20419602
158	0x3e44f40e	0.19233724
159	0x3db7d22b	0.08975633
160	0xbd816e55	-0.06319872
161	0xbe2340d2	-0.15942696
162	0xb90e2d48	-0.00013559044
163	0xbd34c8ae	-0.044136696
164	0x3e29f16a	0.16595998
165	0x3c8a4db2	0.016882751
166	0xbe77c47d	-0.24196048
167	0x3e3297e3	0.17440753
168	0x3c99ec7d	0.018789524
169	0x3e918d52	0.2842813
170	0xbda966e9	-0.08271582
171	0xbe56968e	-0.2095587
172	0x3d49613f	0.049165007
173	0x3e16381f	0.14669846
174	0xbe436d93	-0.19084768
175	0xbe1b0f43	-0.1514254
176	0xbe13c692	-0.14431217
177	0xbd1b40e3	-0.037903678
178	0x3cc2a1d9	0.023758816
179	0x3dddb3b3	0.108252905
180	0xbdc0a677	-0.09406751
181	0xbdb5aeae	-0.08871208
182	0x3e264c92	0.16240147
183	0xbd1c50f8	-0.038163155
184	0xbe48a09f	-0.19592522
185	0xbe7ac478	-0.2448901
186	0x3dc85c2c	0.097832054
187	0x3e06663f	0.13124941
188	0xbd0918e8	-0.033471018
189	0x3d8d4d26	0.068994805
190	0x3e7a2384	0.2442761
191	0x3dfd27ba	0.12361093
192	0x3e0e85fc	0.13918298
193	0xbe30b4a0	-0.17256403
194	0xbe88633b	-0.26638207
195	0xbde169c6	-0.11006503
196	0xbe2e6bc7	-0.17033301
197	0x3e81a6a4	0.2532245
198	0x3e846e6e	0.258655
199	0x3e370584	0.17873198
200	0x3ba3a468	0.004993964
201	0x3d492544	0.049107805
202	0x3d910e64	0.07082823
203	0x3c293a8d	0.010328901
204	0x3e284d0e	0.16435644
205	0xbe7a512e	-0.2444503
206	0xbe11ea59	-0.14249553
207	0xbdfa34e3	-0.122171186
208	0x3d642d83	0.055707466
209	0x3e6f4924	0.23367745
210	0x3cc85a1a	0.024457026
211	0xbdfcb4e8	-0.12339193
212	0xbdd01ded	-0.10161958
213	0xbd98b0b5	-0.07455579
214	0xbdb8d775	-0.0902547
215	0x3c5e9927	0.013586319
216	0xbc9f8b8e	-0.019475725
217	0xbe815a41	-0.2526417
218	0xbe2fbcd3	-0.17161874
219	0x3d833988	0.064074576
220	0x3d8af4a2	0.06784941
221	0x3e1d129c	0.1533913
222	0x3e7329fe	0.23746487
223	0xbe366cfb	-0.1781501
224	0x3e6d88fc	0.23196787
225	0xbd91f382	-0.071265236
226	0xbe8a442a	-0.2700513
227	0x3e62833f	0.22120379
228	0x3d375515	0.044758875
229	0xbd4c60a3	-0.049896847
230	0x3db82298	0.08990973
231	0x3e456ea9	0.19280495
232	0xbe237378	-0.15962017
233	0xbd59fbe6	-0.053218745
234	0xbe039b83	-0.12852292
235	0xbe8bb963	-0.27289876
236	0xbd892c96	-0.06697957
237	0x3e4188cb	0.18899839
238	0xbe1bbbd5	-0.15208371
239	0x3d05ccad	0.032665897
240	0x3e0858e0	0.13315153
241	0xbdac480f	-0.084121816
242	0xbe39f3f1	-0.18159463
243	0xbe0a2295	-0.13489754
244	0x3de95ce0	0.113946676
245	0x3e217145	0.15765865
246	0xbe818ecc	-0.25304258
247	0x3dc9871d	0.09840224
248	0xbbcaabfa	-0.006185052
249	0x3d824b06	0.06361966
250	0xbe3c39f7	-0.18381487
251	0xbd7ad8f5	-0.061242063
252	0x3e63bc2b	0.22239749
253	0xbd38ee90	-0.045149386
254	0xbe215cdb	-0.15758078
255	0xbe9814f5	-0.2970349

soil_net.0.bias f4 [64]
0	0xbce91ec0	-0.028457046
1	0xbdb0c526	-0.08631353
2	0x3e470871	0.19436814
3	0xbe4800f3	-0.19531612
4	0x3e413409	0.18867506
5	0x3dcf29b3	0.10115375
6	0xbdb8beb9	-0.090207525
7	0x3e079909	0.13241972
8	0x3e8942f8	0.26808906
9	0x3e594972	0.21219423
10	0x3e1d0815	0.15335114
11	0xbdfb85c8	-0.12281376
12	0xbd9882fd	-0.07446859
13	0x3de5e36e	0.112250194
14	0x3e3da541	0.1852007
15	0xbcdcdfcd	-0.026962185
16	0xbd93adfa	-0.07210918
17	0x3d8e0b10	0.06935704
18	0x3e47889f	0.1948571
19	0xbd2c6efb	-0.042098027
20	0xbc0e35f6	-0.0086798575
21	0xbe1e91f9	-0.15485372
22	0xbe3379cf	-0.17526935
23	0xbcbe0eef	-0.02320048
24	0xbe416306	-0.1888543
25	0xbe9154cd	-0.2838501
26	0x3e92307e	0.28552622
27	0xbc8f29e3	-0.017476028
28	0x3e4694bc	0.19392675
29	0x3e34e4ba	0.17665377
30	0xbe8c2550	-0.27372217
31	0xbd2df938	-0.042474
32	0x3e846a45	0.25862327
33	0xbc6252de	-0.013813702
34	0xbe0d66a4	-0.13808686
35	0x3e6188ba	0.22024813
36	0x3e236419	0.15956153
37	0x3dd86668	0.105664074
38	0x3dd50dcb	0.104030214
39	0xbc2d1cb9	-0.01056593
40	0xbd9faadc	-0.07796261
41	0x362b8800	2.5560148e-06
42	0x3cfc9630	0.030833334
43	0x3dbc3b68	0.09191018
44	0xbc99c2fd	-0.018769735
45	0x3dab9732	0.083784476
46	0xbdb13959	-0.08653516
47	0xbde92063	-0.113831304
48	0x3b885b63	0.004161285
49	0x3c2a1a58	0.010382257
50	0x3ba9d2fc	0.005182622
51	0xbab77b05	-0.0013998455
52	0x3df1786c	0.11790547
53	0x3d994c66	0.07485275
54	0x3d29b817	0.041435327
55	0xbda451ea	-0.08023436
56	0x3d6bf87f	0.05761003
57	0x3e70a6ad	0.23501082
58	0x3dca8135	0.098879255
59	0xbe80a4b9	-0.25125673
60	0xbd7251bf	-0.05915999
61	0x3e19a7c4	0.15005404
62	0x3d35c34c	0.044375703
63	0x3cec442f	0.028841106

soil_net.2.weight f4 [32, 64]
0	0xbd4918cc	-0.049095914
1	0xbd94db65	-0.07268409
2	0xbe05db41	-0.1307192
3	0xbdcce978	-0.10005468
4	0xbdc56c42	-0.09639789
5	0x3dd3946c	0.103310436
6	0xbde95194	-0.11392513
7	0xbd34d7c2	-0.044151075
8	0x3dd9e33e	0.10639046
9	0x3dc28a26	0.09499006
10	0x3db7e1ac	0.0897859
11	0x3daf1bdc	0.08550236
12	0xbdf5aa18	-0.119953334
13	0x3d9107ed	0.0708159
14	0xbe09df9e	-0.1346421
15	0xbda1e5b1	-0.07905138
16	0x3b9b3cc5	0.004737469
17	0x3d38f071	0.045151178
18	0xbc095bf6	-0.008383742
19	0xbe1b037a	-0.15138045
20	0xbc6e58ff	-0.0145475855
21	0x3d27dc7e	0.040981762
22	0x3d6bba23	0.05755056
23	0xbe077e54	-0.13231784
24	0xbc2e6d2b	-0.010646145
25	0xbdd64c4f	-0.104637735
26	0xbe0cbd69	-0.13744129
27	0xbde83421	-0.11338068
28	0xbd09a57f	-0.033605095
29	0xbdfe57aa	-0.12419064
30	0xbdb42f9d	-0.08798144
31	0xbdf07090	-0.117402196
32	0xbdf82f38	-0.12118381
33	0xbdb4c982	-0.08827497
34	0x3e1731b5	0.14765055
35	0x3cdd8e1e	0.027045306
36	0xbd04d559	-0.032430027
37	0x3c1a2a39	0.009409481
38	0x3da304b9	0.07959885
39	0x3dd06ae0	0.10176635
40	0x3e00dfbb	0.12585346
41	0xbe1be7a6	-0.15225086
42	0xbc2183fe	-0.00985813
43	0x3e026ca4	0.12736756
44	0x3e06e740	0.13174152
45	0x3ded3b74	0.115836054
46	0x3d29f2dd	0.041491378
47	0xbe1768f9	-0.14786138
48	0x3de39c1d	0.111137606
49	0xbbdc9422	-0.006731526
50	0x3d9b291d	0.07576201
51	0x3d0cb881	0.034355644
52	0xbdbde8e5	-0.09272937
53	0x3d9955cd	0.07487068
54	0x3da47a89	0.08031184
55	0x3d1eb4c4	0.03874661
56	0xbdc38c8e	-0.09548293
57	0x3dc1ea69	0.09468538
58	0x3cfd2feb	0.030906638
59	0x3d867d89	0.06566913
60	0x3da9bf0b	0.08288392
61	0x3d2fa9db	0.042886596
62	0xbd83d08f	-0.06436264
63	0x3dc66e4a	0.09689005
64	0xbd7e102d	-0.062027145
65	0xbd286816	-0.04111489
66	0x3d9a7e13	0.07543578
67	0xbd8accdb	-0.06777354
68	0x3d8980ba	0.06714006
69	0xbcdcab03	-0.026937013
70	0xbde76f3d	-0.11300514
71	0xbcb694b5	-0.022287706
72	0x3d80e464	0.06293562
73	0xbcd59467	-0.02607174
74	0xbdc6acc8	-0.09700924
75	0x3d910291	0.07080568
76	0xbd43c70a	-0.04779724
77	0xbd798499	-0.06091747
78	0x3d85b7df	0.06529211
79	0x3d2f1920	0.04274857
80	0x3d8e27df	0.069411986
81	0xbc77d7e5	-0.015127157
82	0xbda1c25e	-0.07898401
83	0x3d98ebd5	0.074668564
84	0xbde04ee5	-0.10952548
85	0x3d7383bb	0.0594518
86	0xbc9a8dbd	-0.018866414
87	0xbd92a0ed	-0.071596004
88	0x3b5b4b0f	0.0033461486
89	0xbda692e9	-0.0813349
90	0xbdc396f1	-0.09550274
91	0x3bc28ce3	0.005937205
92	0xbd09c42f	-0.03363436
93	0xbe01fb11	-0.1269343
94	0xbda62179	-0.08111853
95	0x3dc56629	0.09638626
96	0xbd998054	-0.0749518
97	0xbc05caee	-0.008166058
98	0xbd07d18d	-0.033158828
99	0xbd2c296f	-0.0420317
100	0xbdbce625	-0.09223584
101	0xbd3e01b3	-0.04638834
102	0xbcc490d0	-0.023994833
103	0xbd804334	-0.06262818
104	0xbbda98e1	-0.0066710566
105	0x3da3a7be	0.07990979
106	0x3d7f9adf	0.062403556
107	0xbd0a29c2	-0.03373123
108	0x3d4790fa	0.048722245
109	0xbc16ea9f	-0.009211211
110	0xbcb7e287	-0.022446884
111	0x3c8356f9	0.016032683
112	0x3b32732a	0.0027229288
113	0x3ca6b8ee	0.020351853
114	0xbdee5317	-0.11636942
115	0x3cab2ffb	0.020896902
116	0x3d355c07	0.044277217
117	0xbdeee5b2	-0.11664905
118	0x3cfbdf92	0.030746255
119	0xbab52171	-0.001381917
120	0x3d88b64c	0.06675395
121	0xbc4921c0	-0.012276113
122	0x3c01aa44	0.00791413
123	0xbdf9e997	-0.12202757
124	0x3cab13f1	0.020883532
125	0x3d9a9aa6	0.07549028
126	0xbda0b108	-0.07846266
127	0x3dd338bf	0.10313558
128	0x3da9cf8f	0.08291542
129	0xbc84701e	-0.016166743
130	0x3dacbeb2	0.0843481
131	0x3dddab2f	0.10823666
132	0x3d428ef1	0.0474996
133	0xbce4db17	-0.027936501
134	0x3d075365	0.033038516
135	0xbdc11970	-0.0942868
136	0x3ddc8e51	0.10769332
137	0xba954b5a	-0.0011390254
138	0x3d47fbb0	0.048824012
139	0xbc59be9d	-0.013290075
140	0x3e075bca	0.13218608
141	0xbdbf8348	-0.09351212
142	0xbd74af02	-0.059737213
143	0xbdc1c8cc	-0.09462127
144	0x3db4524e	0.08804761
145	0x3d952107	0.0728169
146	0xbe191c95	-0.1495231
147	0xbd83c177	-0.06433385
148	0xbcc9e54e	-0.024645474
149	0xbdae255d	-0.0850322
150	0xbd369c6c	-0.04458277
151	0x3db344cd	0.08753357
152	0xbda31c65	-0.079644
153	0xbd92c482	-0.07166387
154	0x3da994d7	0.08280342
155	0x3d0bab0c	0.03409867
156	0xbda1b1f9	-0.07895274
157	0x3d2d017f	0.042237755
158	0x3dc3561f	0.09537911
159	0x3ddbbfc6	0.10729937
160	0x3e023f80	0.12719536
161	0x3ca3471e	0.019931372
162	0xbdb1253e	-0.086496815
163	0xbd8752c9	-0.06607587
164	0x3d0db5f3	0.03459735
165	0xbdecce67	-0.115628056
166	0xbc04e9b2	-0.008112358
167	0x3c428f28	0.011874951
168	0x3dbfad19	0.09359188
169	0xbd990ec7	-0.07473522
170	0x3da44a66	0.08022003
171	0xbde2f935	-0.11082689
172	0xbca1a0c3	-0.019729977
173	0x3d81f4e5	0.06345538
174	0x3e00a985	0.12564667
175	0x3dc557dd	0.09635899
176	0xbd892173	-0.06695833
177	0xbd7a08dc	-0.061043605
178	0xbdc16891	-0.094437726
179	0xbc9dd8bc	-0.019268386
180	0x3c4ad668	0.01238022
181	0x3deae2f8	0.11469072
182	0xbe159233	-0.14606552
183	0xbdaeeef0	-0.085416675
184	0x3ddc72a5	0.10764054
185	0xbc96fb98	-0.018430516
186	0xbd5fc08d	-0.05462699
187	0x3dd948c7	0.10609584
188	0x3d52fdfc	0.05151175
189	0xb9d5f1b2	-0.00040806603
190	0x3d769a26	0.0602056
191	0xbde93f81	-0.113890655
192	0xbd066bc9	-0.032817636
193	0x3da5e0a2	0.08099486
194	0x3e0d1a76	0.13779625
195	0xbc531769	-0.012883999
196	0x3dbc7669	0.092022724
197	0xbde6425a	-0.11243124
198	0xbd937907	-0.072008185
199	0x3d482089	0.048859153
200	0xbe0a90f0	-0.13531852
201	0x3de920a4	0.11383179
202	0xbb50aa78	-0.0031839889
203	0xbde97a22	-0.11400248
204	0x3db8a1cc	0.09015235
205	0x3cd04386	0.025422823
206	0x3a2ee65a	0.00066718983
207	0x3bda58d8	0.006663423
208	0xbe035549	-0.12825502
209	0xbdd5cca0	-0.1043942
210	0xbc5129e4	-0.012766335
211	0x3e049d37	0.12950598
212	0xbc82b246	-0.015954148
213	0x3dbaa95c	0.09114334
214	0x3c753c9a	0.014968062
215	0x3d18ad3e	0.03727459
216	0x3dc30b0d	0.09523592
217	0x3d3c1ec3	0.045927774
218	0x3d7e41a6	0.062074326
219	0xbc8df895	-0.017330447
220	0xbdc06828	-0.09394866
221	0xbd6ba475	-0.057529885
222	0x3dd3ae69	0.103360005
223	0x3db71c0f	0.089408986
224	0x3dcf4892	0.101212636
225	0xbc4f096a	-0.012636522
226	0x3d88d1e8	0.066806614
227	0xbd2dc153	-0.042420696
228	0xbd570209	-0.052492175
229	0x3da56911	0.080766805
230	0xbd1a6ed5	-0.037703354
231	0xbd9ff0eb	-0.07809623
232	0xbc803d62	-0.01565427
233	0xbd70bb32	-0.058772273
234	0xbdde749f	-0.108620875
235	0xbc94eaa0	-0.018178284
236	0xbcafa474	-0.021440722
237	0xbb8cf840	-0.0043020546
238	0xbd8a3189	-0.06747729
239	0x3e0d925d	0.13825364
240	0x3dbfebc6	0.09371142
241	0xbd9d48b5	-0.076798834
242	0x3d9bdb70	0.07610214
243	0xbdfef32a	-0.124487236
244	0xbda07585	-0.07834915
245	0x3d680cca	0.05665282
246	0x3db031bb	0.08603235
247	0xbdc7fc2c	-0.09764895
248	0x3bd853e6	0.0066017983
249	0xbc9998ff	-0.018749712
250	0xbe0e9fd4	-0.13928157
251	0xbb677c75	-0.0035321985
252	0xbe0bce6c	-0.13652962
253	0xbdac2119	-0.084047504
254	0xbd92f7b8	-0.07176155
255	0xbde85ff6	-0.11346428

soil_net.2.bias f4 [32]
0	0xbd3c6c6a	-0.04600183
1	0x3d912a00	0.07088089
2	0x3dd69b62	0.10478856
3	0x3dda53c8	0.10660511
4	0xbc410cd4	-0.011782844
5	0xbc2fbfc0	-0.010726869
6	0xbcc3f899	-0.023922252
7	0xbd514b63	-0.051097285
8	0x3ceb4a69	0.028722005
9	0x3dc3a2b5	0.09552518
10	0x3d640863	0.05567206
11	0x3c4ddee1	0.0125653455
12	0xbd1cbc2c	-0.038265392
13	0x3d1f3844	0.03887202
14	0x3cf75600	0.030192375
15	0x3d3518f4	0.04421325
16	0x3d2e8236	0.042604648
17	0x3c93f882	0.018062834
18	0x3dd6b1ee	0.10483156
19	0x3cb17e22	0.02166659
20	0x3d639dc2	0.05557037
21	0x3c8c9887	0.017162574
22	0x3c90f609	0.017695444
23	0xbd49e9b0	-0.049295127
24	0x3cbf8c23	0.023382252
25	0x3dc2ca0c	0.09511194
26	0x3d79108e	0.060806803
27	0xbdd73ac4	-0.105092555
28	0xbd93a6dd	-0.07209561
29	0xbcd2cd1a	-0.025732566
30	0xbd85b127	-0.0652793
31	0xbde872fa	-0.11350055

fusion.0.weight f4 [32, 544]
0	0xbd82d4fa	-0.06388278
1	0xbb949a71	-0.0045350124
2	0x3d1aad27	0.037762787
3	0x3c8c2e8e	0.017112043
4	0xbd47d316	-0.04878529
5	0x37d74740	2.5663176e-05
6	0xbd020a76	-0.031748258
7	0xbc1bb70a	-0.009504089
8	0xbd8f3d86	-0.069941565
9	0x3d1633f3	0.036670636
10	0xbd404060	-0.046936393
11	0x3d169f6d	0.036773134
12	0x3d92ef19	0.071745105
13	0xbd9361e6	-0.07196407
14	0xbd8c871e	-0.06861709
15	0xbd30f706	-0.04320433
16	0x3c49bd9e	0.012313275
17	0xbd56e995	-0.052468855
18	0xbcfb329e	-0.030663785
19	0xbc662418	-0.014046691
20	0x3d79c1b4	0.060975745
21	0x3cc1ef21	0.023673596
22	0xbd5a17fd	-0.053245533
23	0xbcc7f03d	-0.024406547
24	0x3d62bf0f	0.05535799
25	0xbc251f02	-0.010078194
26	0x3d73af57	0.05949339
27	0xbc9eb5c5	-0.019373784
28	0x3cf1868c	0.029483102
29	0xbccce2bb	-0.025010457
30	0x3cc90efd	0.02454328
31	0x3cfa0850	0.030521542
32	0xbbd03960	-0.006354496
33	0xbce7b89e	-0.028286275
34	0x3c36d305	0.011158709
35	0x3d06c7d0	0.0329054
36	0xba563a0e	-0.0008172103
37	0xbca82e5c	-0.020529918
38	0x3d19382b	0.03740708
39	0xbd291124	-0.041276112
40	0xbc82ce96	-0.015967648
41	0xbc95c2fd	-0.018281454
42	0x3cd87cb8	0.026426658
43	0xbd0ba64e	-0.034094147
44	0xbcda81f9	-0.026673304
45	0xbc909dcc	-0.017653368
46	0xbc402071	-0.011726485
47	0xbd0efb65	-0.034907717
48	0xbd28716f	-0.041123804
49	0xbcc92c64	-0.0245573
50	0x3c89af51	0.01680723
51	0x3d0f8848	0.035042077
52	0x3c864176	0.016388636
53	0xbcc6a7f4	-0.024250008
54	0x3d2ba2ca	0.041903295
55	0x3d13b5aa	0.03606192
56	0x3c5f96eb	0.0136468215
57	0xbca8fcc4	-0.02062834
58	0x3bcb46e9	0.0062035215
59	0xbc39f997	-0.011351011
60	0x3ccb232c	0.024797045
61	0x3aff356d	0.0019470878
62	0x3d239f9b	0.039947134
63	0xbd28dfc1	-0.041229013
64	0x3ceac6ad	0.02865919
65	0xbb06f4f2	-0.0020592776
66	0xbd009751	-0.031394307
67	0x3be6ccc9	0.0070434553
68	0xbbdb1f88	-0.0066871084
69	0xbd07b7d0	-0.03313428
70	0x3c52efb7	0.012874535
71	0x3c5ab694	0.013349194
72	0x3d2de220	0.042451978
73	0xbd13bb0c	-0.036067054
74	0x3d2878ec	0.041130945
75	0x3bdb5bf8	0.006694313
76	0x3d04f37a	0.03245876
77	0x3c39ad52	0.011332827
78	0xbc9e9442	-0.019357804
79	0x3bfa891d	0.0076457397
80	0x3d0338ab	0.032036465
81	0xbc17847b	-0.009247894
82	0xbc9efd50	-0.019407898
83	0x3b006419	0.0019590913
84	0xbc395e68	-0.011314012
85	0xbd0bd881	-0.03414202
86	0xbd27b118	-0.040940374
87	0x3b5466a0	0.0032409802
88	0x3d06b27e	0.032885067
89	0x3c4e1dc2	0.012580337
90	0xbd09a802	-0.03360749
91	0x3d1ae10a	0.03781227
92	0x39da5f80	0.00041651353
93	0xbb6df1bc	-0.0036307415
94	0x3c0951e4	0.008381341
95	0x3ad42520	0.001618538
96	0xbb0669e2	-0.0020509888
97	0x3b30c319	0.0026971756
98	0xbcafb828	-0.021450117
99	0x3c13f5de	0.009030787
100	0xbbd89932	-0.006610059
101	0xbcc146a6	-0.023593258
102	0xbd195078	-0.037430257
103	0x3d242908	0.040078193
104	0x3be93e3b	0.007118014
105	0x3d12aaff	0.035807606
106	0x3d1dde93	0.03854234
107	0x3c917f56	0.017760914
108	0x3c3c289c	0.011484291
109	0xbcc77ec7	-0.024352444
110	0x3cacf52a	0.021112997
111	0xb9811105	-0.00024617478
112	0x3c46c874	0.012132753
113	0x3b974cac	0.0046172943
114	0x3d00be6c	0.0314316
115	0x3d14cc59	0.036327694
116	0x3cda02d0	0.02661267
117	0xbcc741fc	-0.024323456
118	0xbc4bd45f	-0.01244077
119	0xbccc999a	-0.024975587
120	0xbbf0a7cf	-0.007344223
121	0xbc8e841e	-0.017396983
122	0xbc48667b	-0.0122314645
123	0xbce5cc5b	-0.028051546
124	0xbc7c29b6	-0.015390804
125	0x3aed1f34	0.0018090964
126	0xbc96e39d	-0.018419081
127	0xbcadd759	-0.02122085
128	0x3c98a9c2	0.018635634
129	0x3ae86aec	0.001773206
130	0xbc19511f	-0.00935772
131	0xbd0b6753	-0.034034085
132	0x3ca63ffa	0.020294178
133	0x3c07a66c	0.008279424
134	0x3d2cb6e8	0.04216662
135	0x3d2111f1	0.03932375
136	0x3cb36b84	0.021901853
137	0x3c2a9054	0.010410387
138	0x390d4aa9	0.00013474621
139	0xbcd3d16f	-0.025856702
140	0xbc2fa1eb	-0.010719757
141	0xbd210f0e	-0.039320998
142	0x3cddcd53	0.027075445
143	0x3c8bcf2c	0.01706656
144	0x3c75919c	0.014988329
145	0xbcd9ceb3	-0.02658782
146	0x3cbaf90e	0.022823837
147	0x3c02e9b4	0.0079902895
148	0x3c92c632	0.017916773
149	0x3a58aac0	0.000826519
150	0xbcf2c063	-0.029632753
151	0x3d0b344f	0.033985432
152	0xbcba6ebe	-0.022757884
153	0xbcdfe8cb	-0.027332684
154	0x3cc242ad	0.023713434
155	0xbc87e843	-0.016590243
156	0xbd24a184	-0.040193096
157	0x3c0bc314	0.008530397
158	0x3cf5ddd1	0.030012997
159	0xbd1a0846	-0.037605546
160	0xbc5879fa	-0.013212675
161	0x3d2fd19e	0.042924516
162	0x3c495724	0.012288842
163	0xbce72928	-0.028217867
164	0x3cd96ad7	0.026540203
165	0xba0a219e	-0.00052692916
166	0x3cdbd2c2	0.026833896
167	0x3b411ef0	0.0029467903
168	0xbb8e2000	-0.004337311
169	0x3d02eb5c	0.031962737
170	0x3d233410	0.039844573
171	0x3b282430	0.0025656335
172	0x3bd4becd	0.006492472
173	0xbcac9639	-0.021067725
174	0xbd1e5a26	-0.03866019
175	0x3cf5075b	0.029910734
176	0xba782418	-0.00094658276
177	0x3d18b8f7	0.03728577
178	0xbd21e459	-0.03952441
179	0x3ca52fb1	0.020164343
180	0xbcd37cd3	-0.025816357
181	0x3cbb29e4	0.022847123
182	0x3c7267e4	0.014795277
183	0x3d23f6fa	0.040030457
184	0xbc30ed0f	-0.010798707
185	0x3d10a265	0.03531112
186	0x3d2f0d6a	0.042737402
187	0xbd11e5af	-0.035619434
188	0xbc965e04	-0.018355377
189	0xbcc5b69e	-0.02413493
190	0xbc5382db	-0.012909616
191	0x3b850fc8	0.004060719
192	0x3be7f167	0.007078338
193	0x3d075a38	0.033045024
194	0xbd2498b8	-0.040184706
195	0x3d353c5a	0.04424701
196	0x3cf98154	0.030457176
197	0xbcbb22b4	-0.022843696
198	0xbcc7295b	-0.024311712
199	0x3cb4516a	0.022011478
200	0xbd1eb719	-0.038748834
201	0xbc583fe7	-0.013198829
202	0xbc3f882a	-0.011690179
203	0x3c49f079	0.0123254
204	0xbb8517c4	-0.004061671
205	0xbc81c80c	-0.01584246
206	0x3cbc0172	0.022949908
207	0xbbfa2fca	-0.0076350914
208	0xbcb13d9b	-0.021635821
209	0x3cb15bb2	0.021650169
210	0x3c95ebd4	0.018300928
211	0x3d2d4a7e	0.04230737
212	0x3d212280	0.039339542
213	0xbcbf9dff	-0.023390768
214	0xbcc6843a	-0.024232972
215	0xbbeaf9b1	-0.007170879
216	0x3c1740ea	0.009231785
217	0x3bbda45e	0.0057874164
218	0xbc3c581f	-0.011495619
219	0x3cabb792	0.020961557
220	0xbbdb9bb7	-0.0067019123
221	0x3d21a75b	0.039466243
222	0xbc9fe8fe	-0.019520279
223	0xbcba7181	-0.022759201
224	0x38354cd0	4.32253e-05
225	0xbbf33d68	-0.0074230917
226	0x3ac815e8	0.0015265318
227	0xbcf9deb0	-0.030501693
228	0xbc870b49	-0.016484873
229	0x3d2504b3	0.040287685
230	0xbd0d6b6c	-0.034526274
231	0xbd0d19f2	-0.03444857
232	0x3ce5cd23	0.028051918
233	0xbcc7c118	-0.024384066
234	0xbd10e5db	-0.035375457
235	0x3b4ffafd	0.0031735294
236	0xbc835b14	-0.01603464
237	0x3d323814	0.04351051
238	0x3b548986	0.0032430603
239	0xba9c3920	-0.001191888
240	0x3b7a7bea	0.0038220831
241	0x3d32a5b0	0.043615043
242	0x3d0d1de9	0.034452353
243	0xbc0b4746	-0.00850088
244	0x3cb97f0e	0.022643592
245	0xbb98d715	-0.0046643117
246	0x3cf746ed	0.030185187
247	0xbc067901	-0.0082075605
248	0xbc962277	-0.018326981
249	0x3c723ea3	0.014785442
250	0xbcc73f27	-0.024322106
251	0xbd02ac54	-0.031902626
252	0xbc569580	-0.013097167
253	0x3c6c3562	0.014417024
254	0x3d0c831f	0.034304734
255	0x3d2cd35a	0.042193748

fusion.0.bias f4 [32]
0	0xbd17bc79	-0.037044976
1	0x3c8f0386	0.017457735
2	0xb922ec85	-0.00015537634
3	0xbd253a9b	-0.040339094
4	0x3c9113e9	0.01770969
5	0x3d2377d7	0.03990921
6	0x3bf9a3c8	0.007618401
7	0xbcf1de46	-0.029524934
8	0x3cff006f	0.031128136
9	0xbc878fcf	-0.016548065
10	0xbc9cbd91	-0.019133361
11	0x3d067029	0.032821808
12	0xbd2ce489	-0.042210136
13	0xbb635ad2	-0.0034691584
14	0x3cb5dd0b	0.022200128
15	0x3cbfca51	0.023411902
16	0x3d2df6b3	0.0424716
17	0xbc1944a2	-0.009354742
18	0xbd26c4f4	-0.040715173
19	0x3ceea662	0.029132072
20	0xbca031d8	-0.019555017
21	0xbc41ea4f	-0.011835649
22	0x3b2a4c80	0.002598554
23	0xbd1acd6c	-0.03779356
24	0xbcdf0d92	-0.02722815
25	0xbb8562e0	-0.0040706247
26	0xbcc367c7	-0.023853196
27	0xbd0eba4a	-0.034845628
28	0xbc9c550a	-0.019083519
29	0x3a8dcc20	0.001081828
30	0xbc8c6cfe	-0.017141815
31	0x39e48180	0.00043584034

fusion.2.weight f4 [1, 32]
0	0x3d8938b1	0.06700266
1	0x3cf8c78c	0.030368589
2	0xbe169d2e	-0.14708397
3	0xbdac5f9d	-0.08416674
4	0x3c1ffed7	0.009765348
5	0x3d8d3646	0.068951175
6	0x3d462704	0.048377052
7	0xbe115d02	-0.14195636
8	0x3e2041fe	0.15650174
9	0xbc8570b8	-0.0162891
10	0xbd2fb244	-0.042894617
11	0xbdaf4b2e	-0.08559261
12	0xbdbde74d	-0.09272633
13	0xbdd95c3c	-0.106132954
14	0xbe1ff1af	-0.15619539
15	0x3d34c5b9	0.044133876
16	0x3d44fc09	0.048091922
17	0xbdc05ddf	-0.093929045
18	0xbd9c6d94	-0.07638088
19	0xbdf7af2a	-0.12093957
20	0x3d68d664	0.056845084
21	0xbb9ac88a	-0.004723613
22	0x3dd6dad6	0.104909584
23	0xbd996f04	-0.07491878
24	0x3e13d131	0.14435269
25	0x3d775538	0.060384005
26	0xbe0e033a	-0.13868418
27	0x3de6c7a6	0.11268549
28	0x3d9801c2	0.0742221
29	0x3e1559bd	0.14585014
30	0x3d51156c	0.05104582
31	0xbe132d73	-0.14372806
