saved_models/maize_model.pt (torch, 85360 bytes, 7 tensors)

soil_net.0.weight f4 [64, 14]
0	0x3e54ee23	0.20793967
1	0xbe146904	-0.14493185
2	0x3e45c7fa	0.19314566
3	0x3dd4543b	0.10367628
4	0x3e8fe09b	0.28101048
5	0x3e591a14	0.21201354
6	0xbdedbc5d	-0.11608193
7	0x3defd69c	0.11710855
8	0x3da72489	0.081612654
9	0xbd034e6f	-0.032057222
10	0x3dc56358	0.09638089
11	0xbe3afa33	-0.18259506
12	0x3e99327e	0.29921335
13	0x3e6ab8fe	0.22922131
14	0xbe086eb1	-0.13323475
15	0x3e5551d4	0.20831996
16	0xbcf85df5	-0.03031824
17	0x3d448cec	0.047985956
18	0x3e50ca09	0.2038957
19	0x3e4bc727	0.1990019
20	0xbcf45ae2	-0.029828493
21	0xbdf1896e	-0.11793791
22	0x3de53124	0.111910135
23	0xbe3e3b68	-0.18577349
24	0xbe334574	-0.17506963
25	0xbd0f2e5f	-0.034956332
26	0x3e72b6ee	0.23702595
27	0xbd41296c	-0.047158644
28	0x3c95d36e	0.018289294
29	0x3cfd97b5	0.030956129
30	0x3e41212a	0.18860307
31	0xbe481848	-0.19540513
32	0x3e0a5f76	0.13512978
33	0xbe4227e1	-0.18960525
34	0x3d03e1f3	0.032197904
35	0x3c9b43b5	0.018953184
36	0xbe6c19d0	-0.23056722
37	0xbdb27a3e	-0.08714722
38	0x3e6255d1	0.22103049
39	0x3db67d54	0.08910623
40	0x3dc55e3b	0.09637114
41	0x3cf3f121	0.029778065
42	0x3e505f78	0.20348918
43	0x3df3913f	0.11892938
44	0x3c83fbdc	0.016111307
45	0x3d0ba4c8	0.034092695
46	0xbe8c8c1b	-0.27450642
47	0xbe7406c1	-0.23830701
48	0x3e6a3eed	0.22875567
49	0xbd704654	-0.05866082
50	0x3e495368	0.19660723
51	0x3e4ea588	0.20180333
52	0x3aa774b4	0.0012775869
53	0x3e8366ca	0.2566436
54	0x3e51c08b	0.20483606
55	0x3e091b43	0.13389306
56	0x3e8d21ec	0.27564943
57	0x3e039097	0.12848125
58	0x3e2ce036	0.16882405
59	0xbd6da10c	-0.058014914
60	0x3e8e7f4c	0.27831495
61	0x3dfedcb4	0.124444395
62	0x3c403960	0.011732429
63	0x3e69d0b1	0.22833516
64	0x3dedee7d	0.11617754
65	0xbdb8fec8	-0.09032971
66	0x3d8a26bf	0.067456715
67	0x3e6a99d7	0.22910248
68	0xbe0de438	-0.1385659
69	0x3d1c6f23	0.038191926
70	0x3e047857	0.12936531
71	0xbe57f36b	-0.2108895
72	0x3e64740e	0.22309896
73	0x3d0ac50c	0.033879325
74	0x3e4b6657	0.19863258
75	0xbdabcdf7	-0.08388894
76	0x3e8bd8c4	0.27313817
77	0x3cb7df32	0.022445295
78	0x3e4c283a	0.1993722
79	0x3e3c5e17	0.18395267
80	0x3d8c5a3c	0.06853148
81	0x3e0ca9ec	0.13736695
82	0x3daa682f	0.08320653
83	0xbcc40a1d	-0.023930604
84	0xbc02e3ad	-0.007988852
85	0xbaba612e	-0.0014219636
86	0xbe3bdebf	-0.1834669
87	0x3e0d2bc8	0.13786232
88	0xbd8269be	-0.06367825
89	0x3d14ec1a	0.036357976
90	0xbc88b133	-0.016686058
91	0xbd496f2c	-0.049178287
92	0x3e71383d	0.2355661
93	0x3e53e10a	0.20691314
94	0x3da630a2	0.08114745
95	0x3d3b8c40	0.04578805
96	0x3ce3f2b6	0.027825695
97	0xbe5643f4	-0.2092436
98	0xbde85dce	-0.11346017
99	0xbdd068a7	-0.10176211
100	0xbdb6279b	-0.08894273
101	0xbe197f01	-0.14989854
102	0x3db70d90	0.08938134
103	0x3e2dc7de	0.16970775
104	0xbe93e228	-0.2888348
105	0x3d54d8fd	0.05196475
106	0xbe7d7a49	-0.2475368
107	0xbe62f77d	-0.22164722
108	0xbe625037	-0.22100912
109	0x3e06a3d9	0.1314844
110	0x3aeb6a01	0.0017960669
111	0x3c874fdf	0.016517578
112	0x3e4eb8a6	0.20187625
113	0x3dfde9b5	0.12398092
114	0xbdcd1dd3	-0.10015454
115	0x3e410fc2	0.18853667
116	0xbca640cf	-0.020294575
117	0xbe7acdfb	-0.24492638
118	0x3c64c068	0.013961889
119	0xbe64115c	-0.22272247
120	0x3d74bbf5	0.059749562
121	0xbd547026	-0.051864766
122	0xbe2f7965	-0.17136152
123	0xbdfc769a	-0.12327309
124	0xbe7630bd	-0.2404203
125	0x3dc29bf1	0.095024
126	0xbd9e74c7	-0.07737117
127	0xbe208f09	-0.15679564
128	0x3e6f6f32	0.23382261
129	0x3e861ea3	0.2619525
130	0x3e45f05d	0.19329973
131	0x3e773133	0.24139862
132	0x3c9f9232	0.019478891
133	0x3d9c9c3d	0.076469876
134	0x3d7f1649	0.062277112
135	0x3e2e5f45	0.1702853
136	0x3e93ecf7	0.28891727
137	0x3df455ec	0.11930451
138	0xbe58fdfe	-0.2119064
139	0xbe1b6a87	-0.15177356
140	0xbd9a8a47	-0.075459056
141	0x3e3970e8	0.18109477
142	0x3d64437c	0.05572842
143	0xbd8a3110	-0.06747639
144	0x3e1afe9f	0.15136193
145	0x3dd9c67e	0.106335625
146	0xbd9a9dae	-0.07549606
147	0xbd9dd4e6	-0.07706623
148	0xbe21dd08	-0.15806973
149	0x3e77abab	0.2418658
150	0xbe85ec66	-0.2615692
151	0x3bcd6a40	0.0062687695
152	0xbe8aa87a	-0.27081662
153	0xbd341f67	-0.04397526
154	0x3da9a1e6	0.08282833
155	0xbdeff8a1	-0.11717344
156	0x3e3c32e7	0.18378793
157	0xbd638620	-0.055547833
158	0x3e45b316	0.19306597
159	0x3e6adb82	0.22935298
160	0xbd7a27ca	-0.061073102
161	0x3dba1b33	0.09087219
162	0xbe202fdb	-0.15643255
163	0x3cd3102a	0.025764544
164	0xbdd4182f	-0.10356175
165	0xbe88c29c	-0.26710975
166	0xbdb498f9	-0.0881824
167	0x3e70de17	0.2352222
168	0x3dbcb06e	0.09213339
169	0x3e0a00ed	0.13476916
170	0xbdf0dd52	-0.117609635
171	0x3d61b3ad	0.055102993
172	0xbe1dbd5c	-0.15404266
173	0x3dcf1c89	0.101128645
174	0x3e8ceb55	0.27523294
175	0x3e1bcdf9	0.15215291
176	0xbd8c4bc6	-0.0685039
177	0xbe178303	-0.14796071
178	0x3e824163	0.2544051
179	0xbe6ca86a	-0.2311112
180	0x3e5d372b	0.21603076
181	0xbe20d37e	-0.15705678
182	0xbe03798e	-0.12839338
183	0xbe173e0f	-0.14769767
184	0x3d6906bb	0.056891184
185	0x3e4e61ad	0.20154448
186	0x3d6dc61c	0.05805026
187	0xbdbbbbc6	-0.09166674
188	0xbe30363a	-0.17208186
189	0xbe6202fd	-0.22071452
190	0x3c9c5213	0.019082105
191	0xbe815ceb	-0.25266203
192	0xbe407d97	-0.18797909
193	0x3e4b17e1	0.19833328
194	0x3e8b9cd2	0.27268082
195	0xbe9547a7	-0.2915623
196	0xbe8ce03e	-0.27514833
197	0xbd4dd8bb	-0.05025552
198	0x3df01404	0.11722568
199	0xbdab22a5	-0.08356217
200	0x3e277d78	0.16356456
201	0x3e6dfbeb	0.2324063
202	0xbe750b0a	-0.23929992
203	0x3d5cbb3a	0.05388949
204	0xbe1378c6	-0.1440154
205	0xbd8ec6b5	-0.06971494
206	0x3e371a3f	0.17881106
207	0xbe850a58	-0.25984454
208	0xbe3f37ce	-0.18673632
209	0x3e13adc2	0.14421752
210	0x3e873c93	0.26413402
211	0x3e73c293	0.23804693
212	0x3da49746	0.080366656
213	0xbe204d94	-0.15654594
214	0xbe76796a	-0.24069753
215	0xbe24041b	-0.16017191
216	0x3cb00096	0.021484654
217	0x3dbe9e6b	0.093075596
218	0x3db7e36b	0.089789234
219	0x3ac14aa7	0.001474698
220	0x3de31f4d	0.110899545
221	0xbde5d08c	-0.11221418
222	0xbced9b5f	-0.02900475
223	0x3e229e9e	0.1588082
224	0xbe06e458	-0.13173044
225	0x3d7916c9	0.060812745
226	0x3de55912	0.111986294
227	0x3cac7256	0.021050613
228	0xbe83aeba	-0.25719243
229	0x3de3f122	0.11129977
230	0xbe2eda6e	-0.17075512
231	0xbb53d994	-0.0032325732
232	0x3e27438d	0.16334362
233	0x3d1ab6d8	0.03777203
234	0x3cfe0c5d	0.031011755
235	0xbe88c503	-0.26712808
236	0x3e439170	0.19098449
237	0xbd3694fb	-0.044575673
238	0x3e0cd9c5	0.13754947
239	0x3e2d59b9	0.16928758
240	0xbd94542f	-0.07242619
241	0xbd32074b	-0.043463986
242	0xbd225bf4	-0.039638475
243	0x3e732c86	0.23747453
244	0x3df5afe7	0.11996441
245	0xbceb7de1	-0.028746547
246	0x3e86d438	0.26333785
247	0x3dd5ea98	0.10445136
248	0x3c02ebb1	0.0079907635
249	0x3dc2ab72	0.09505357
250	0x3e7c1283	0.24616437
251	0xbafe643e	-0.0019408537
252	0xbe2359c4	-0.15952212
253	0xbe6877f0	-0.22702003
254	0x3dfaed55	0.12252299
255	0xbe7b2122	-0.24524358

soil_net.0.bias f4 [64]
0	0x3e2d4591	0.16921069
1	0xbe3b5c1a	-0.18296853
2	0x3d326b99	0.043559644
3	0x3e3897fa	0.18026724
4	0xbdc48a89	-0.09596736
5	0x3e7c9a1e	0.24668166
6	0xbd583679	-0.052786324
7	0x3e1fd7bd	0.15609641
8	0x3e858f86	0.26086062
9	0x3e3599b7	0.17734419
10	0xbe29cbca	-0.16581646
11	0xbd8606a4	-0.06544235
12	0x3e3c9100	0.18414688
13	0x3db0659f	0.08613133
14	0x3cd96776	0.026538592
15	0x3e3a5837	0.18197714
16	0x3e4b5bf3	0.19859295
17	0x3e6ff40f	0.23432945
18	0xbe83d444	-0.25747883
19	0x3ca259b4	0.019818164
20	0x3e56c401	0.20973207
21	0xbe06ae00	-0.13152313
22	0xbda62479	-0.08112425
23	0xbde12cde	-0.10994886
24	0xbe122eee	-0.14275715
25	0x3e02a90f	0.12759803
26	0x3dcb5bb8	0.09929603
27	0x3dd5514d	0.104158975
28	0x3cc4b156	0.024010342
29	0x3e80d62a	0.25163394
30	0xbe1bc506	-0.15211877
31	0xbe873c7b	-0.2641333
32	0xbe5922d5	-0.21204694
33	0xbe60c596	-0.21950373
34	0xbda4b70d	-0.08042727
35	0xbd1857cb	-0.0371931
36	0x3d844a2f	0.06459462
37	0xbd715ee0	-0.05892837
38	0xbe11261e	-0.14174697
39	0xbdcbb661	-0.099468954
40	0xbd605390	-0.05476719
41	0xbe8bf6fd	-0.27336875
42	0x3e372ba6	0.17887744
43	0x3e94d165	0.29066005
44	0xbe947887	-0.28998205
45	0x3b3e3d28	0.0029028151
46	0xbe2fdd13	-0.17174177
47	0x3d228ad8	0.039683193
48	0xbd94d1c8	-0.07266575
49	0x3d639a8d	0.055567313
50	0xbe598b10	-0.21244454
51	0x3e7ef74c	0.24899024
52	0x3e4c2746	0.19936857
53	0xbe84c0eb	-0.25928435
54	0xbc72ad80	-0.014811873
55	0x3e3502b4	0.17676812
56	0xbdb18c60	-0.086693525
57	0x3d9f76f3	0.0778636
58	0x3e05d526	0.13069591
59	0x3e7f6f7e	0.24944875
60	0xbcdd6a4b	-0.027028223
61	0x3d88132b	0.06644281
62	0x3e570a5a	0.21000043
63	0xbc4738e3	-0.012159559

soil_net.2.weight f4 [32, 64]
0	0xbd43af68	-0.047774702
1	0xbdd58e5c	-0.104275435
2	0x3da943b9	0.0826487
3	0xbdb73c6c	-0.089470714
4	0xbc850410	-0.016237289
5	0xbd4cd0ba	-0.050003745
6	0xbdbe72ba	-0.09299226
7	0xbe00891d	-0.12552305
8	0xbd21bd8b	-0.039487403
9	0x3d9d2cfc	0.07674596
10	0x3ce7435f	0.028230367
11	0x3db3a3e6	0.087714955
12	0x3d5d8db9	0.054090235
13	0x3d9d8a7f	0.07692432
14	0x3ca0102e	0.019538965
15	0xbc934357	-0.017976446
16	0xbdd4a0b5	-0.10382215
17	0xbd215ce2	-0.03939522
18	0xbe07d759	-0.13265742
19	0xbdd0dde0	-0.10198569
20	0x3d0a5906	0.033776306
21	0x3d28f9f3	0.041253995
22	0x3c9af70f	0.018916635
23	0x3a2ec294	0.00066665676
24	0x3d9e8564	0.07740286
25	0xbdd18cb0	-0.10231912
26	0xbe00dd8d	-0.12584515
27	0x3d94ce3a	0.07265897
28	0x3d7453ea	0.05965034
29	0xbdcce1c0	-0.10003996
30	0x3d4d3729	0.050101433
31	0x3db6134c	0.08890399
32	0xbc8484a7	-0.016176535
33	0xbdd2f063	-0.102997564
34	0xbcc532f4	-0.024072148
35	0xbdaaf377	-0.083472185
36	0x3cbc0b63	0.022954648
37	0xbdd91d92	-0.10601343
38	0xbdb69444	-0.08914998
39	0x3cd9b669	0.026576238
40	0x3d9d3a46	0.076771304
41	0xbdfc07b7	-0.12306159
42	0x3d7d4cd1	0.061840836
43	0xbe097d8f	-0.13426803
44	0xbdfb8b92	-0.1228248
45	0x3d962965	0.07332114
46	0x3d3138ea	0.043267168
47	0x3cf31a70	0.029675692
48	0xbd07829e	-0.03308355
49	0xbdc8ba0d	-0.09801111
50	0xbe0f6a34	-0.14005357
51	0xbc4fa5d3	-0.012673813
52	0x3a2930b0	0.00064540934
53	0xbd36d602	-0.044637688
54	0xbdd39f35	-0.10333101
55	0x38811cf0	6.1565894e-05
56	0xbdd05a71	-0.101735
57	0x3d8deb48	0.06929642
58	0xbe159faa	-0.14611688
59	0x3c06f1a2	0.008236321
60	0xbe0b4c4a	-0.1360332
61	0x3dacecc6	0.084435984
62	0x3cf54dc9	0.029944317
63	0x3c730bac	0.014834326
64	0xbb3173dc	-0.0027077114
65	0xbc671b85	-0.014105682
66	0x3e1df32a	0.15424791
67	0xbd67480d	-0.056465197
68	0xbc19ad72	-0.0093797315
69	0x3dff2668	0.12458497
70	0x3d8fb0a2	0.07016112
71	0x3d8fe3b1	0.070258506
72	0xbdb8ebb1	-0.090293296
73	0xbdb52c2a	-0.08846314
74	0xbd9becf6	-0.07613556
75	0x3ce9c24c	0.02853503
76	0xbd8c40a2	-0.06848265
77	0x3e007120	0.12543154
78	0xbd244b9f	-0.04011118
79	0x3c526fc4	0.01284403
80	0x3e156607	0.14589702
81	0xbc63ab0e	-0.013895763
82	0xbd5cedc8	-0.053937703
83	0x3dfc4ca3	0.12319305
84	0xbd0a3176	-0.033738576
85	0xbd9427ef	-0.07234179
86	0x3dcb8fcc	0.099395365
87	0x3dc1f954	0.09471384
88	0x3e0e8de2	0.13921311
89	0x3e19cc84	0.15019423
90	0xbda4cdf0	-0.08047092
91	0xbd150220	-0.03637898
92	0x3ddb8c75	0.107201494
93	0x3d59b786	0.053153537
94	0xbdbe256a	-0.0928448
95	0x3bf5c6a0	0.0075004846
96	0x3dbc5ca6	0.09197359
97	0x3d37e429	0.044895325
98	0x3d48e8f3	0.049050283
99	0x3d85f860	0.065415144
100	0x3dd68484	0.10474494
101	0x3deab90f	0.114610784
102	0xbbd50604	-0.0065009613
103	0x3bd25160	0.006418392
104	0xbbc4a527	-0.006001133
105	0xbc19d61b	-0.009389426
106	0xbd94c085	-0.07263283
107	0x3e0eb2c6	0.13935384
108	0x3c108b74	0.008822311
109	0xbc82a3f1	-0.015947314
110	0x3d99ad5e	0.0750377
111	0x3d7a4ee4	0.061110392
112	0xbcb9ddad	-0.022688711
113	0x3e094444	0.13404948
114	0xbd3ca8c5	-0.04605939
115	0x3d8bf64d	0.068340875
116	0x3e12f56d	0.14351435
117	0x3de01c64	0.10942915
118	0xbd6181b0	-0.05505532
119	0x3e02c1d0	0.12769246
120	0x3df301f9	0.11865611
121	0x3e126305	0.14295585
122	0x3dfc7347	0.12326675
123	0x3d6b9e89	0.057524238
124	0xbd102b94	-0.03519781
125	0xbd4072ca	-0.04698447
126	0xbd545a4d	-0.05184393
127	0x3e17e631	0.14833905
128	0x3ded09e4	0.11574152
129	0xbc134619	-0.008988881
130	0x3deb4e52	0.11489548
131	0x3bdaa94d	0.0066730143
132	0x3dc31072	0.09524621
133	0x3db2dc38	0.0873341
134	0x3daa9b65	0.083304204
135	0x3d5d0fdb	0.0539702
136	0x3cb64572	0.022249911
137	0xbdb23016	-0.08700578
138	0xbc8fa465	-0.017534444
139	0x3d81083f	0.06300401
140	0xbd2d81c7	-0.042360093
141	0x3da491bc	0.08035609
142	0xbda95a59	-0.082691856
143	0xbd36a2cb	-0.044588845
144	0x3cb133bc	0.021631114
145	0xbd97ac75	-0.074059404
146	0x3d83de00	0.064388275
147	0xbd9d694c	-0.076860994
148	0x3db3b857	0.087753944
149	0x3ddec204	0.10876849
150	0x3c8966bb	0.016772619
151	0x3d2431c6	0.04008653
152	0x3daed992	0.08537592
153	0xbd3f0d8a	-0.04664377
154	0xbd90ec2f	-0.070762984
155	0x3dec26ff	0.115308754
156	0x3dd17a53	0.102284096
157	0x3d149642	0.03627611
158	0x3d486f8a	0.048934497
159	0xbcb7cd98	-0.022436902
160	0x3d2153b6	0.039386474
161	0xbdac6049	-0.084168024
162	0xbc913ef4	-0.017730214
163	0x3e0711ba	0.13190356
164	0x3d27e7c9	0.040992532
165	0xbcc7d1f7	-0.024392111
166	0x3d22286a	0.039589323
167	0x3dd2623e	0.102726445
168	0xbdadcd67	-0.08486443
169	0x3d86ef91	0.065886624
170	0x3da8e576	0.08246891
171	0x3e032933	0.12808685
172	0xbc6cb086	-0.014446383
173	0x3ddade91	0.106869824
174	0xba6e1fa0	-0.0009083692
175	0x3b3d6a79	0.0028902574
176	0xbd623360	-0.055224776
177	0x3d7e0a30	0.062021434
178	0xbbdf58cf	-0.0068160067
179	0x3e0045f9	0.12526692
180	0x3e0a7c13	0.13523893
181	0xbc881f03	-0.01661635
182	0x3de6d5f8	0.1127128
183	0x3e193e67	0.14965211
184	0x3c97c1fe	0.01852512
185	0x3d29f964	0.041497603
186	0x3db7272f	0.089430206
187	0x3d0f8746	0.035041116
188	0x3d4d66c9	0.05014685
189	0xbd6efc5e	-0.058346145
190	0x3d88d399	0.06680984
191	0x3dafa77d	0.08576868
192	0x3d71a433	0.058994483
193	0xbe150098	-0.14551008
194	0xbe11eb29	-0.14249863
195	0x3d46c427	0.04852691
196	0xbda9d65a	-0.082928374
197	0xbd930125	-0.07177953
198	0xbe0b8448	-0.1362468
199	0xbb7aa84a	-0.003824728
200	0xbd806962	-0.062701
201	0xbe0bde5f	-0.13659047
202	0xbe1e44be	-0.1545591
203	0x3d81b623	0.06333568
204	0xbdaee230	-0.085392356
205	0x3cfb6c8c	0.030691408
206	0x3d8fb846	0.07017569
207	0xbe0d0c30	-0.1377418
208	0xbda72e5e	-0.08163141
209	0xbd7838cb	-0.060601037
210	0x3cdb98a5	0.026806185
211	0xbdb4fae6	-0.088369176
212	0xbddce973	-0.107867144
213	0xbd1d6e2a	-0.03843514
214	0xbd11891b	-0.035531145
215	0xbdb594fb	-0.088663064
216	0xbc17b94d	-0.009260488
217	0x3d5e7de4	0.054319277
218	0xbceb6950	-0.02873674
219	0xbe06cdb1	-0.13164403
220	0xb9f6bb6c	-0.00047060417
221	0x3c64e5e9	0.0139708305
222	0x3cc62a11	0.02418998
223	0xbd4174f4	-0.047230676
224	0xbe03ff1d	-0.12890287
225	0xbd10d14c	-0.03535585
226	0xbdfadb72	-0.12248887
227	0xbd7d6915	-0.061867792
228	0x3cdfa16f	0.027298657
229	0xbaacffed	-0.001319883
230	0xbd60f95f	-0.05492532
231	0xbd871e54	-0.065975815
232	0xbd83e9d0	-0.064410806
233	0x3d7fde10	0.062467635
234	0xbd816f6e	-0.06320082
235	0xbcf2e16c	-0.029648505
236	0x3dc0b2f0	0.094091296
237	0x3d1064a1	0.035252217
238	0xbdc643e1	-0.096809156
239	0xbdeac4ef	-0.11463343
240	0xbd7f0f44	-0.062270418
241	0xbde6924a	-0.11258371
242	0xbdf50f26	-0.1196578
243	0x3d161e5a	0.03665004
244	0xbe1e7946	-0.1547595
245	0x3d65314a	0.05595521
246	0xbd8b3ecd	-0.06799088
247	0x3daa880c	0.0832673
248	0x3c3b6272	0.011437045
249	0x3da809f2	0.08205022
250	0x3d709340	0.05873418
251	0x3d362c5f	0.04447591
252	0xbdaf2036	-0.085510656
253	0x3d332669	0.043737803
254	0x3d055de5	0.032560248
255	0x3d60d19c	0.0548874

soil_net.2.bias f4 [32]
0	0xbd8b63ae	-0.06806122
1	0x3e0ae4cf	0.13563846
2	0x3e069482	0.13142589
3	0xbdfd9520	-0.12381959
4	0x3d92b32c	0.071630806
5	0xbdd3809b	-0.10327264
6	0x3db6d773	0.089278124
7	0xbdf2d03e	-0.11856125
8	0x3e1707f6	0.1474913
9	0xbde4d2de	-0.11173032
10	0xb9e96b5c	-0.00044521212
11	0xbd533f05	-0.051573772
12	0xba6bf9ee	-0.0009001781
13	0x3d88f266	0.06686859
14	0x3d34d721	0.044150475
15	0xbce5d776	-0.028056841
16	0x3c357865	0.011076068
17	0xbd839ab7	-0.06425994
18	0xbd369c12	-0.044582434
19	0xbd01caa4	-0.031687394
20	0x3cd15fe8	0.025558427
21	0xbda205a2	-0.079112306
22	0x3c758b2f	0.014986797
23	0xbdfe4135	-0.12414781
24	0xbde0de39	-0.109798856
25	0xbd222698	-0.039587587
26	0x3e09fca3	0.1347528
27	0xbdb762da	-0.08954401
28	0x3dfcfc9e	0.123528704
29	0xbdb61cc5	-0.08892206
30	0x3d3be912	0.04587657
31	0x3dd49012	0.10379042

fusion.0.weight f4 [32, 544]
0	0x3cdc74a3	0.026911085
1	0x3d254dc2	0.04035736
2	0x3cc0a244	0.023514874
3	0xbca8a082	-0.020584349
4	0xbbfb550c	-0.0076700505
5	0xbad41501	-0.0016180576
6	0xbd175925	-0.03695025
7	0x3cdfe1a4	0.027329274
8	0xbc8fe49e	-0.017565068
9	0xbd92946e	-0.07157217
10	0xbd1a0058	-0.037597984
11	0xbd099d53	-0.0335973
12	0xbd6b8230	-0.057497203
13	0xbcba35b8	-0.022730693
14	0xbd190254	-0.037355736
15	0xbc4c2064	-0.012458894
16	0x3887b010	6.470096e-05
17	0x3d05f77c	0.032706723
18	0xbd89b50b	-0.06723984
19	0x3d2d3a96	0.0422922
20	0xbca2ce6f	-0.019873826
21	0xbd493720	-0.049124837
22	0x3b3c8bbe	0.0028769816
23	0x39a28954	0.00031001365
24	0xbd37e68a	-0.044897594
25	0xbc6320fa	-0.013862843
26	0x3d91d6b4	0.071210295
27	0x3d264f38	0.040602893
28	0xbc454653	-0.012040692
29	0x3c9bde56	0.019026916
30	0xbc19697f	-0.009363531
31	0x3d8d3ac3	0.068959735
32	0xbd1124b9	-0.035435412
33	0x3d421b4c	0.047389314
34	0x3d8b6801	0.068069465
35	0x3d1c79ca	0.038202085
36	0x3c07634a	0.008263418
37	0x3ced6fcc	0.028983973
38	0xbc342dd0	-0.010997251
39	0x3d0e5959	0.034753177
40	0x3cd2996a	0.02570792
41	0x3d67fd72	0.05663819
42	0xba24c846	-0.00062859466
43	0xbd119d49	-0.03555039
44	0xbc012f14	-0.007884759
45	0x3cc73dcd	0.024321461
46	0xbae9c24b	-0.0017834393
47	0x3d8ea504	0.06965068
48	0xbc5108fc	-0.01275849
49	0x3d391395	0.04518469
50	0x3aa55b45	0.0012615701
51	0x3bc27ec4	0.005935522
52	0xbc0a6e98	-0.008449219
53	0xbc811ebe	-0.01576173
54	0x3d846c5a	0.06465979
55	0x3d5d5f16	0.05404576
56	0x3cc0f6e0	0.02355522
57	0x3c206f21	0.00979212
58	0x3d9a7265	0.0754135
59	0x3ca664a9	0.02031167
60	0x3d5bd176	0.053666554
61	0x3d8acd19	0.067774005
62	0x3d940c3c	0.07228896
63	0x3bdd963b	0.0067622936
64	0x3d8fbdb9	0.070186086
65	0x3d8b006d	0.067871906
66	0x3d123195	0.035691816
67	0x3d8603a2	0.06543662
68	0x3ca08ac8	0.019597426
69	0xbb505cfa	-0.00317937
70	0x3c76bcbf	0.015059649
71	0x3bb19af0	0.0054200813
72	0x3d8f8f1a	0.07009716
73	0x3d22846d	0.039677072
74	0x3d405df7	0.04696461
75	0x3d1c75b7	0.0381982
76	0x3baab1e9	0.005209197
77	0xbc110bb8	-0.008852892
78	0x3bec566f	0.007212452
79	0x3c665169	0.014057496
80	0x3b25a45a	0.0025274963
81	0x3bc4b1a1	0.0060026203
82	0x3d5c63a9	0.05380598
83	0x3c10fa85	0.008848791
84	0x3cf14642	0.029452447
85	0x3d877c85	0.06615547
86	0xbbb0b829	-0.0053930474
87	0xbb38e4c0	-0.0028212517
88	0x3d180db0	0.03712243
89	0x3a161ec2	0.0005726629
90	0x3c82fabc	0.0159887
91	0xbbdd3717	-0.006750952
92	0xbcf4c724	-0.029880114
93	0x3d5a1af6	0.05324837
94	0x3d7b2fb6	0.061324798
95	0x3d03b466	0.032154463
96	0x3d82df0c	0.06390199
97	0x3cfb309a	0.030662823
98	0x3d1fc789	0.03900865
99	0x3d963b0d	0.07335482
100	0x3c3eeeb4	0.011653591
101	0x3d271cdd	0.04079901
102	0x3bd2d63e	0.006434231
103	0x3d91030f	0.070806615
104	0x3cadc56d	0.021212304
105	0x3c243f0f	0.0100248
106	0x3d9333ac	0.0718759
107	0x3cf9edee	0.030508962
108	0x3cc5378c	0.024074338
109	0x3ca584e9	0.020204978
110	0x3d980a43	0.07423832
111	0x3d8c2f8f	0.068450086
112	0xbc9fb7af	-0.019496767
113	0x3d80789b	0.06273004
114	0xbb96ff99	-0.0046081063
115	0x3abb8661	0.0014307016
116	0x3d675c0e	0.056484275
117	0x3d919979	0.07109351
118	0x3b88d6f1	0.0041760136
119	0x3cea26b6	0.028582912
120	0x3cbc5108	0.022987857
121	0x3c1d0429	0.009583511
122	0x3d1729ab	0.036904972
123	0x3c8b7ff6	0.01702879
124	0xbc1c4bf6	-0.009539595
125	0x3bc6e91d	0.0060702697
126	0x3d264141	0.040589575
127	0x3d8e5aed	0.069509365
128	0x3cec16ee	0.028819527
129	0xbb37369e	-0.0027956138
130	0x3d48e08b	0.049042266
131	0x3d13d636	0.03609296
132	0x3d8afd24	0.06786564
133	0x3c86c858	0.016452953
134	0x3ce37190	0.027764112
135	0x3ca9bac8	0.020718947
136	0x3d43eabc	0.047831282
137	0xbc8b3818	-0.016994521
138	0x3bd00ae0	0.0063489527
139	0x3c737646	0.014859742
140	0x3d992b69	0.07478983
141	0x3cb4ccec	0.02207037
142	0x3c68d6a0	0.014211327
143	0x3bf7be68	0.00756054
144	0x3cc95e8c	0.024581216
145	0x3ce0ff46	0.027465474
146	0x3cb101fe	0.021607395
147	0xbbae8ebe	-0.005327075
148	0x3d72fd20	0.05932343
149	0xbc2d012c	-0.010559361
150	0x3d57d4ce	0.05269318
151	0x3ca0c80d	0.019626642
152	0xbb3ef799	-0.002913928
153	0x3d4b74da	0.049671985
154	0x3d8864be	0.0665984
155	0x3cd5d35c	0.02610176
156	0x3d557d88	0.05212167
157	0x3d2c0d23	0.042004716
158	0x3d80ea52	0.06294693
159	0x3d2cfead	0.042235065
160	0x3d92c9f6	0.07167427
161	0x3d42a368	0.047519118
162	0x3c90a6ba	0.017657626
163	0x3b8785d6	0.0041358275
164	0x3d91ce99	0.071194835
165	0x3d96f82e	0.07371555
166	0x3c1b193c	0.009466466
167	0x3bcec280	0.0063098073
168	0xbc0bd434	-0.00853448
169	0x3d8a5329	0.06754143
170	0xb9508b60	-0.00019888347
171	0x3be74d95	0.007058809
172	0x3d10d92b	0.035363358
173	0x3d719db9	0.058988307
174	0x3d44ad55	0.048016865
175	0x3d85a0a7	0.06524783
176	0xbac8a85d	-0.0015308965
177	0x3d8b0f85	0.067900695
178	0x3d674be4	0.05646886
179	0x3bace608	0.0052764453
180	0x3d03643e	0.03207802
181	0x3cc996be	0.024608012
182	0xbc9ac2eb	-0.018891772
183	0x3cca8932	0.024723623
184	0x3d2aa159	0.04165778
185	0x3b30bb1c	0.0026966995
186	0x3d8c773b	0.06858679
187	0x3c1520b4	0.009102035
188	0xbd1b0582	-0.03784705
189	0x3d8a17b0	0.06742799
190	0xbb99bc27	-0.004691619
191	0x3cf2af30	0.029624552
192	0x3ca2cc43	0.01987279
193	0xbc08a578	-0.008340232
194	0x3d869cb9	0.06572861
195	0x3d02fa21	0.031976823
196	0x3a2c0012	0.000656129
197	0x3d3f7a64	0.04674758
198	0x3d7712f6	0.060320817
199	0x3d1746b9	0.03693268
200	0x3c0aa57b	0.008462305
201	0xbbf3f0de	-0.007444485
202	0x3d3976e2	0.04527939
203	0x3d4c1266	0.049822234
204	0x3b78b632	0.0037950394
205	0x3c398399	0.011322879
206	0x3c9bd61e	0.019022997
207	0x3c9818f0	0.018566579
208	0x3bd6e2e1	0.006557808
209	0xbb6c4326	-0.0036050766
210	0x3d995930	0.07487714
211	0x3bb39cf8	0.0054813586
212	0xba55213a	-0.00081302563
213	0x3b789c12	0.0037934822
214	0x3ce0a956	0.027424496
215	0x3c465c4c	0.012106966
216	0xbc159f38	-0.009132199
217	0x3d05224e	0.03250342
218	0x3d36b62c	0.044607326
219	0xbb58a1bc	-0.0033055386
220	0x3d1956aa	0.037436165
221	0x3d20ffc3	0.039306413
222	0x3d0e4aa8	0.034739166
223	0x3d89e993	0.06734004
224	0x3c137929	0.009001055
225	0x3b782220	0.0037862137
226	0x3c7e3f05	0.015517955
227	0x3d5d7a84	0.054071918
228	0x3d29756f	0.04137176
229	0xbb530f44	-0.0032205144
230	0xbaba1a78	-0.0014198562
231	0xbd172baf	-0.036906894
232	0x3c5b7602	0.0133948345
233	0x3cf7b00a	0.03023531
234	0x3c60f4e8	0.013730265
235	0x3d3f50d1	0.046707932
236	0x3d693bdc	0.056941852
237	0x3d027e33	0.031858634
238	0x3d2e0d47	0.04249313
239	0xbd24691d	-0.040139306
240	0x3d19d7ef	0.037559446
241	0x3c6fbc1f	0.014632254
242	0xbaee9b01	-0.0018204154
243	0x3ca74a86	0.020421278
244	0x3d959cac	0.073052734
245	0xbbe3fe35	-0.006957794
246	0x3d6cd4fe	0.057820313
247	0x3c7d6a0b	0.015467177
248	0x3d112feb	0.03544609
249	0x3d2bad4f	0.041913327
250	0x3d12fc86	0.035885356
251	0x3d2d2bb8	0.04227802
252	0x3ce5e2e3	0.02806229
253	0x3d4b8019	0.04968271
254	0x3bf1bb6d	0.007377079
255	0x3d13e12d	0.036103416

fusion.0.bias f4 [32]
0	0x3cf22c40	0.029562116
1	0xbd2b9a9f	-0.041895505
2	0xbc40f19e	-0.011776356
3	0xbd0d818c	-0.034547374
4	0x3d19052b	0.037358444
5	0xbba80f38	-0.0051287673
6	0xbbe13cc8	-0.006873701
7	0xb9fc8f00	-0.0004817173
8	0xbc3b38a4	-0.011427078
9	0x3d8b66ca	0.06806715
10	0xbd151425	-0.036396164
11	0x3cdf85e6	0.027285527
12	0x3d045d0a	0.03231529
13	0xbcb3e6e2	-0.02196068
14	0x3d8ce7e2	0.06880166
15	0x3d379058	0.04481539
16	0x3d00a37b	0.031405907
17	0xbc6db878	-0.014509313
18	0xbd192623	-0.037389886
19	0xbc170df4	-0.009219635
20	0x3c27c128	0.010238923
21	0x3d7ba183	0.061433326
22	0x3a30b200	0.0006740391
23	0xbd1ce1ec	-0.038301393
24	0x3c84e13b	0.01622068
25	0xbd1e5011	-0.038650576
26	0x3d61894d	0.05506258
27	0x3c656f00	0.014003515
28	0x3ba1aadc	0.004933698
29	0xbc5446e6	-0.012956357
30	0x3cf16aae	0.029469814
31	0xbd1d65c4	-0.03842713

fusion.2.weight f4 [1, 32]
0	0x3d113268	0.03544846
1	0xbd36262a	-0.04446999
2	0xbd9707ac	-0.0737451
3	0x3c9a46b0	0.018832535
4	0x3e215f34	0.15758973
5	0xbde5e789	-0.112258025
6	0xbda0fe26	-0.07860975
7	0x3c20e100	0.009819269
8	0xbe059fbf	-0.1304922
9	0x3e01027e	0.12598607
10	0xbce3f886	-0.027828466
11	0x3c074260	0.008255571
12	0x3dae12c4	0.08499673
13	0xbd1742c8	-0.036928922
14	0x3e3a6d71	0.18205811
15	0x3e4943b1	0.19654728
16	0x3db68202	0.08911516
17	0xbe030a81	-0.12796976
18	0x3e00afe1	0.12567092
19	0xbd971a39	-0.073780484
20	0xbe22f503	-0.15913777
21	0x3daa0c50	0.0830313
22	0x3de401ba	0.11133142
23	0xbd10ce78	-0.035353154
24	0x3d7a69a1	0.06113589
25	0xbdab8395	-0.08374707
26	0x3d0e4801	0.034736637
27	0x3dbac056	0.091187164
28	0xbb54bcd6	-0.0032461188
29	0xbd25fc45	-0.040523786
30	0xbc7ac320	-0.0153053105
31	0xbdf84ecd	-0.12124405
